data1/ai_models/model_complex/ai_model_lstm_autoencoder.tflite (tflite, 320260 bytes, 16 tensors)

arith.constant f4 [32]
00000000: bf9f 433c aee5 7f3c 62e4 6d3d ac13 363b
00000010: 4385 da3c 5ac4 fabc b143 10bd e346 0f3c
00000020: 8df5 67bc fbe4 ab3c 471f b13c fe2e 7c3b
00000030: 5d54 3f3c 8554 f13c b402 85bc ce87 7c3c
00000040: 86cf 2b3d 0000 0000 eaaa a4bc df09 0b3d
00000050: 4994 bbbc 4a54 3b3b 47cf 2cbd 6956 fa3b
00000060: e1dd c03b ed91 163d 0a02 f13c fb82 333d
00000070: afe1 053d 0000 0000 4f60 b5bc 7095 373d
0.011939942 0.015618725 0.05807913 0.0027782721 0.026674872 -0.030611206 -0.035220806 0.008744928
-0.014157665 0.02098321 0.02162136 0.0038480158 0.011677829 0.029459247 -0.01623664 0.015413238
0.041945957 0.0 -0.02010103 0.03394496 -0.022897856 0.0028584176 -0.042189863 0.0076396954
0.005885825 0.03676026 0.029419918 0.043826085 0.03268593 0.0 -0.02214065 0.04482025

arith.constant1 f4 [7]
00000000: b69d 6abc 739c e6bc 80c2 00bd 0ca1 05bd
00000010: bdbb f43c ee4e a43c 9661 0dbd
-0.014319828 -0.028150773 -0.03143549 -0.03262429 0.029874677 0.020057168 -0.034516893

arith.constant65 f4 [7, 64]
00000000: 91c9 c03c d3d2 0b3e 1c3f 8a3e 324e 523e
00000010: 5890 78be 617c 86bd 3b4c e4bd 2e2c 073e
00000020: b37a a83d e588 ae3d d05f 3cbe c9d9 52be
00000030: 94af 28bd 66d7 1c3d 124e f33d e222 0fbd
00000040: 4d48 4b3e 60ca f23d 98f7 083e 234e a03c
00000050: 1b09 81be aee2 243d cf77 ec3c bad4 7fbe
00000060: 3051 4e3e e941 8e3e 1bc0 86bd 9c90 5d3e
00000070: 2219 833e 9ae2 743e af59 86be 4333 fabd
00000080: d052 563e f056 70bd 521e 7a3e 8949 6f3e
00000090: bf17 b9bd 0c4b 0f3d 4103 013e 0ebf 9cbd
000000a0: 38a3 a1bd ff25 33be 66d0 4d3e 24e4 113e
000000b0: c605 1c3e 1130 3dbe 9cdf 52bd 6812 93be
000000c0: 50a6 bcbd f288 31be c2d4 073e ca15 7bbe
000000d0: 9b0a 2c3e a5fd 1e3e 124d 3dbe 0d47 94be
000000e0: 5bb0 3f3e 6c11 00be 6e96 08be 8b54 cbbc
000000f0: bd9b 50be 5d72 3fbe 4b61 82be 43ec a3bd
00000100: e67b 543e 8dc2 523e 9794 0bbe aa07 883e
00000110: de74 24be f1f6 8ebe f797 2cbe 39d8 f03d
00000120: c5df 423d b86e 49be d814 82bc f14f e8bb
00000130: d4a7 6c3e a9ea 003e 8f66 8e3e 2851 93bd
00000140: 517a 2fbe 5f32 903d 0e72 723e c0ab fdbd
00000150: c914 003e 5afd 253c 9d39 3a3e fbd0 59bd
00000160: 2262 8f3e 2bf2 493e ba67 8ebd 1778 653e
00000170: 1dc9 53be 40a9 a33d 41f5 c73c 157c 893e
00000180: 0f1a dd3b c34c a33d 3b7b 983c 8c3b 39be
00000190: 8fd2 4bbe 5b72 683e a2ac 14be cfda 4fbe
000001a0: 172b 663e c470 8a3e cb7d b2bd b309 8cbe
000001b0: dbff 85be a583 6dbd 32b2 2fbe 9eda 493e
000001c0: 0b7d de3c 9eb5 a93e 904e 99be 4515 cebd
000001d0: 6e9a 313e 16b2 1cbe 34ca 833d 70a3 56be
000001e0: c9c6 873e b06f 943d 2e84 d43d 31b1 b33d
000001f0: c4ef 0d3e 5134 cfbd b033 033e 16d7 543e
00000200: 1c2c 4dbd 7e26 993e 08ab e7bd c2f6 e3bc
00000210: 89f1 b33e 9e4a 99be 9d93 813e 9e11 b0bd
00000220: ccbe 293e cfa3 5d3d 3bac 3cbe 318b 09be
00000230: 43c5 c9bd 02de 4ebd 5521 763d 7a23 68be
00000240: e5d0 61bd 62ff edbd 4d85 05bd 5807 683e
00000250: e319 113e 3b3c 9a3e f0ea 37be b1e5 77be
00000260: 4194 d4bd 0d26 393d ac3d 743e cee4 20be
00000270: 0162 813e 269e 853e 8b9c 5fbe c6bb 7e3e
00000280: 49aa c6bd f0e5 793e 38a0 143e 3b8d 813e
00000290: 57f2 96be 137b 9cbe 8a55 3e3e 557c b23d
000002a0: 1048 6e3d e637 2e3e 5907 3a3e 3639 e63d
000002b0: 86a2 92be eba3 61be 1640 fbbd 4d63 4a3e
000002c0: 8f53 803e fea8 d7bd 446c 63bd b957 113e
000002d0: cabd 7cbd 75f3 af3d 83be a4be 50c0 5f3e
000002e0: bdc7 79be 0c3c 44be efb7 45be f399 703e
000002f0: 2415 d8bd 3b4e 24be 6b48 70be 50e7 bcbc
00000300: ad50 a4bc c11d d8bd 4dc4 d6bd d05a 7d3e
00000310: ffe5 0dbe 0eb7 5abe 807c 7b3e 5f1d 2b3e
00000320: 210c 54be dff2 afbd 07b3 f53d e8cf 083e
00000330: e199 16be 490d 8fbd 25b0 593e 5380 b7bd
00000340: d4de e6bd ccce 313d 083e fbbd 6565 963e
00000350: e13b 20bd 2425 cf3b f9e9 e1bd e407 66be
00000360: 367a 0b3d 0721 6c3e 1f9e eabd 7ebf 32be
00000370: 8270 133e 1e2b a0bb 9915 c73c 1eb2 8b3d
00000380: 97f0 763e e844 80bd 5b24 1d3e 68a9 2f3e
00000390: 2969 0abe 69a4 973d 1e47 883e bdfa 48bd
000003a0: fb19 843e fe2d 1f3e 90dd 38be 409f 053e
000003b0: 80c5 0fbe dca1 9dbc 03b2 4cbe 08a2 34bc
000003c0: 4981 b53d 4406 2abe 3e46 b8bc 2cc8 24be
000003d0: 2c46 d83e c2f6 3b3e 4ea5 6ebe f74c 45be
000003e0: 3520 ac3d 19cd 0fbd 56a5 253e 581a 983e
000003f0: 6622 6c3c 16b1 90be 3b86 8cbe bc16 81be
0.023533614 0.13654642 0.27001274 0.20537642 -0.24273813 -0.06566692 -0.11147352 0.13200447
0.08226528 0.08522204 -0.18395925 -0.20590891 -0.04118307 0.038291357 0.11880125 -0.034945376
0.198518 0.11855006 0.133757 0.019568508 -0.2520226 0.04025524 0.028865723 -0.24983492
0.20148158 0.2778466 -0.0657961 0.21637195 0.25605112 0.23914567 -0.26240298 -0.12216809
0.20930028 -0.05867666 0.24425629 0.23367895 -0.09037732 0.03498368 0.12598898 -0.07653628
-0.0789246 -0.17494963 0.20099029 0.14247185 0.15236577 -0.18475367 -0.05148278 -0.2872498
-0.09211409 -0.17337397 0.13264754 -0.2452003 0.1680092 0.15526445 -0.18486431 -0.28960457
0.18719618 -0.12506646 -0.13338634 -0.024820587 -0.2037191 -0.1869597 -0.25464854 -0.08004048
0.20750389 0.20582028 -0.13630901 0.26568347 -0.16060206 -0.27922776 -0.16854845 0.11759991
0.047576685 -0.19671142 -0.01587908 -0.007089608 0.23110896 0.12589516 0.2781262 -0.07193214
-0.17136504 0.070408575 0.23676321 -0.12386274 0.12507929 0.0101312045 0.1818604 -0.053177815
0.28004557 0.19721286 -0.06953378 0.22409092 -0.20682187 0.07991266 0.024408938 0.2685248
0.006747491 0.079736255 0.018613448 -0.18089122 -0.1990454 0.22699873 -0.14518979 -0.20298313
0.22477375 0.27039158 -0.08715399 -0.2735115 -0.26171765 -0.057986874 -0.1715782 0.19712302
0.027159235 0.33146375 -0.2994275 -0.100626506 0.17344067 -0.1530231 0.064350516 -0.20960784
0.2651885 0.07247865 0.10376774 0.08774031 0.13860995 -0.101174004 0.12812686 0.20785174
-0.050090894 0.2991218 -0.113119185 -0.027827624 0.35145214 -0.2993974 0.25307932 -0.0859711
0.1657669 0.0541113 -0.18425076 -0.13432004 -0.09852078 -0.050504692 0.06009038 -0.22669783
-0.055130858 -0.11620976 -0.03259783 0.22659051 0.14170031 0.30124077 -0.17960715 -0.24208714
-0.1037984 0.045202304 0.23851651 -0.15712282 0.25270084 0.2609722 -0.2183706 0.24876317
-0.09700448 0.2440412 0.14514244 0.25303063 -0.29481766 -0.30562648 0.18587318 0.08715121
0.058174193 0.17013511 0.18166865 0.11241381 -0.2863962 -0.22035186 -0.12268083 0.19764443
0.2506375 -0.105302796 -0.055523172 0.1419362 -0.061704434 0.085913576 -0.321766 0.21850705
-0.243926 -0.19163531 -0.19308446 0.23496227 -0.10550907 -0.16045468 -0.23465125 -0.023059517
-0.020058 -0.1055255 -0.1048666 0.24741673 -0.13857268 -0.21358892 0.24559212 0.16710423
-0.20707752 -0.08591246 0.119970374 0.1336056 -0.14707138 -0.06984956 0.212586 -0.08960023
-0.1127297 0.043410107 -0.12267691 0.29374233 -0.039119605 0.006321566 -0.11030955 -0.22463948
0.034052096 0.23059474 -0.114559405 -0.17455861 0.14398387 -0.0048879525 0.02430229 0.068210825
0.24115215 -0.06263143 0.153459 0.17154467 -0.13516678 0.074044056 0.26616758 -0.049067248
0.25801072 0.15544888 -0.1805327 0.1304903 -0.14040184 -0.01924222 -0.19989781 -0.011024959
0.0886255 -0.16603953 -0.022494432 -0.16091985 0.42241037 0.1835585 -0.23305246 -0.19267641
0.084045805 -0.035107706 0.16176352 0.297076 0.014412498 -0.28260106 -0.2744616 -0.25212657

arith.constant66 f4 [32, 32]
00000000: 6ac7 6dbe d6bd 5dbe 797e 263e 1b83 5b3d
00000010: f824 ac3d 0ffe 333e 8a7f aa3c eb18 803e
00000020: bb85 1cbd 1b3c f73b a805 223e fa61 2c3e
00000030: 8e38 3a3e e9d0 24be 99ca 513e 14f9 98bc
00000040: 5426 9a3e 6333 713e 9694 9bbd ac37 d93d
00000050: 14a2 0ebd d854 8e3e 0be4 833b 7e41 943c
00000060: 41a1 9e3e 75ce aebd c9cb 90be 081b 52be
00000070: 43e2 703d bc21 743e 454c c2bd c115 d8bd
00000080: 484b 293e b842 1d3e 0862 44be 3a03 8a3e
00000090: a8d3 06be 3f22 b73c beb7 563e 212d d9bd
000000a0: 52a8 98bc a1da 5a3e 579f 653e 7a45 afbd
000000b0: 2936 11be 9b65 a23b 0ad6 24be 0f4e 803e
000000c0: 7463 373e 9233 9bbe 236d 793e 0a20 923e
000000d0: ef4b 24be 2ae6 83be 7fec 8a3d fe49 b53d
000000e0: 57f4 42be 075d 2abe ed09 403e b484 45bd
000000f0: e1c2 98be 2e78 0d3e 6879 083e 9a24 82be
00000100: 2e29 6f3e e5f4 03be 9cfb 3e3e 60ca 42be
00000110: 514a 03bd dd1d 0bbe 50fa a6be 8a47 563e
00000120: ae60 8fbe 77a0 1d3e bb57 873e 3caf 1cbd
00000130: 7dbc 7fbe 7df3 82bd ea5e 603e 0721 59be
00000140: 97e7 f5bc 6872 42ba 7c2d 153e ef44 18bd
00000150: 9a2c 043e 3c91 38be b80f 8ebd c24e 94bd
00000160: e474 7f3e 14fc 993d 83b2 44bd cea8 b9bd
00000170: a2cc 67be 26ab 85bd 4773 89be 7a1c ad3e
00000180: 93d5 49be 05bd 89be f5c4 ab3d eb41 8d3d
00000190: 3316 77bd 96d5 503e 8640 e83d 7b5d 983e
000001a0: 1474 99be aaac 803d 2d62 3bbd 4f80 003e
000001b0: d456 83be a9d8 783c b18d 64be 01f3 8ebe
000001c0: e914 173c a81d 943e 88e9 19be 7026 793d
000001d0: 1346 91be 539d 85be 9b06 45be 06e8 9bbd
000001e0: 1419 033e 4280 053e dd7c 60be 0dd6 923e
000001f0: d603 51be fedb 063e dec5 87bc f56e 90be
00000200: ffce 92be d0d7 9e3e e250 55bd e88d 413c
00000210: 7f2c 883e f443 42be d567 90be 2fe4 563e
00000220: d46b 413d 3105 f1bc b02d 4f3e 35c5 97be
00000230: 039f 053d e1b4 56be 3450 25bd fa5a 163e
00000240: 9877 703e 5a18 563e 638a 82be c6b4 4c3e
00000250: 874b c3bd 9b99 8ebe 4ce7 15be fcd7 603e
00000260: 3130 283d 714d b7bb 8d07 85be f6c2 5c3e
00000270: a76a 9d3e 15d1 543e 9b3c 2ebe c50f 1d3d
00000280: 9860 8ebe 0cfe ccbd 88ae 863e bb05 95be
00000290: 6693 4bbe f304 013e 659f 65be 0fbf 393e
000002a0: 363d 6a3e bc73 5fbe 75e6 3a3e 9a3c 1b3e
000002b0: c714 a9be 23d9 d4bd eb08 633e 5ffd 42be
000002c0: a3e2 863e 3107 753e e594 d03d 6e12 4d3e
000002d0: 5fb5 63be 26e1 12bd 6049 1cbe fc15 a0be
000002e0: 324f 0cbe 7cc3 6c3e 8070 063d 40a0 423e
000002f0: e864 503d 2912 413d c8cd 35be a3d7 4cbe
00000300: 9f4e 223e 1035 dd3d f2f0 e8bd 7675 40be
00000310: f7c4 32bd 97fa 373e 9a60 80be 9ff6 6e3e
00000320: c8e7 7fbe f0d7 9bbe 169e 673d ae5a dcbd
00000330: 2ddf 023d 4bb4 2d3d 4b1a 253e ffc8 9cbd
00000340: fa04 573e 5d67 8a3e a71d 323c 6f2c 913e
00000350: 647b 49be e000 80be f89c 81be 634d 4cbe
00000360: 44ac 5b3d 422a 433e 0670 dc3b a535 63be
00000370: 2b98 2ebd 56c5 92be f8fc 24bd 7915 3dbc
00000380: dbc0 7d3e 9aeb 8b3e 30b8 613b bc29 f43b
00000390: d0d4 2e3d 99d0 e83e 8c79 863e 2458 503d
000003a0: 0194 6f3e 5c07 043e 7a0d 9d3e 2723 dfbd
000003b0: c625 093e 6b41 9a3e ab15 9a3d 327b 6e3e
000003c0: bbc5 93be 0dc9 04bc 60b8 54bd d927 163d
000003d0: bf46 443e e678 80be 94e2 a93d ebb8 89bd
000003e0: 8dad 8f3e 6fb3 a93c 9c80 603c abc8 fc3d
000003f0: fea5 ca3e b4c1 8ebe 2ea8 97bc bfbd 09bd
-0.23220602 -0.21654448 0.16259183 0.05359183 0.08405489 0.17577384 0.020812768 0.2501901
-0.038213473 0.007545007 0.1582247 0.1683425 0.18185636 -0.16095318 0.20487441 -0.018673457
0.30107367 0.23554759 -0.075967 0.10606322 -0.03482254 0.27799106 0.0040249876 0.018097635
0.30982402 -0.08535472 -0.28280476 -0.20518124 0.05880953 0.23840994 -0.094872035 -0.10551024
0.16532624 0.15357482 -0.19178021 0.26955587 -0.13166678 0.022355197 0.2096853 -0.10604311
-0.018634949 0.21372463 0.22424065 -0.085581735 -0.14180817 0.00495596 -0.16097274 0.25059554
0.17909032 -0.30312783 0.24358039 0.2854007 -0.16044591 -0.2576154 0.06783389 0.088520035
-0.19038521 -0.1663705 0.18753786 -0.04822226 -0.2983618 0.13815376 0.13327563 -0.2541855
0.23355553 -0.12886389 0.18650669 -0.19022512 -0.032053296 -0.1358561 -0.32612848 0.20925727
-0.28003448 0.15393244 0.2643412 -0.038253054 -0.24974246 -0.06394098 0.21911207 -0.21204005
-0.030017657 -0.00074175606 0.14568132 -0.037175115 0.12907639 -0.18024153 -0.06936592 -0.07241584
0.24946934 0.07518783 -0.048021805 -0.090654 -0.22636655 -0.065267846 -0.26845762 0.33810788
-0.19710378 -0.26902023 0.08387176 0.068973385 -0.060323905 0.20393977 0.11340432 0.2975882
-0.29971373 0.06282933 -0.045747925 0.12548946 -0.25652182 0.015188375 -0.22319676 -0.27919772
0.009221294 0.28928876 -0.15030491 0.060827672 -0.28373775 -0.2609659 -0.19240801 -0.07612614
0.12802535 0.13037208 -0.21922632 0.28678933 -0.2041162 0.13169858 -0.016573843 -0.28209653
-0.2867355 0.31024027 -0.05207909 0.011813618 0.26596448 -0.18971235 -0.28204218 0.20985483
0.047221974 -0.02942142 0.20232272 -0.29642645 0.03262235 -0.20967437 -0.04035969 0.14683142
0.23483121 0.20907727 -0.25496206 0.19990835 -0.0953589 -0.27851567 -0.14639014 0.21957392
0.041061584 -0.0055939485 -0.25982323 0.21558747 0.30745432 0.20782883 -0.17015307 0.038345117
-0.2780807 -0.10009393 0.26305032 -0.29105935 -0.19880447 0.12599544 -0.22424085 0.1813929
0.22874913 -0.21821493 0.18251975 0.15159836 -0.33023664 -0.10392978 0.2217137 -0.19041966
0.26344785 0.23928525 0.101846494 0.20026562 -0.22237156 -0.03585925 -0.15262365 -0.31266773
-0.13702086 0.23121446 0.032822132 0.19006443 0.05087748 0.04713646 -0.1775428 -0.20004134
0.15850304 0.108011365 -0.11374082 -0.18794808 -0.04364487 0.17966686 -0.250737 0.23336266
-0.24990761 -0.30438185 0.056547247 -0.10759483 0.03195112 0.04240827 0.16123311 -0.076555245
0.20997992 0.27031985 0.0108713275 0.28354213 -0.19675976 -0.25000668 -0.2531507 -0.19951396
0.053631082 0.19059089 0.0067272214 -0.22188433 -0.042625587 -0.2866618 -0.040280312 -0.011540764
0.247806 0.27328187 0.003444206 0.007451264 0.042683423 0.45471647 0.26264608 0.050865307
0.23396303 0.12893432 0.30674344 -0.10895377 0.13393316 0.30128035 0.07523664 0.23289183
-0.28861794 -0.008104575 -0.051933646 0.036659095 0.19167612 -0.25092238 0.082951695 -0.067247234
0.28062096 0.020715443 0.013702538 0.12342962 0.39579767 -0.2788216 -0.018512812 -0.03362822

arith.constant84 f4 [256, 7]
00000000: 4372 94bb a7bb d6bd 9e43 953d 5e97 9abd
00000010: eeba 0b3e 9b42 aa3d 1e65 893d 4526 7e3d
00000020: 346b db3d f35a 493d 104a 853d 0efe d03d
00000030: b99c 2a3c 81f4 41be ca17 a6bc 6c91 c13d
00000040: b0ac be3d ce2b 323d 22f0 e23c b982 b8bd
00000050: dd47 103e efb8 e73c 4cd3 c73d 8b6f 9abb
00000060: 45a2 c53d de56 8ebd 7943 1ebd d4c0 0f3d
00000070: 8766 d33d 69b0 94bc 1e6b d8bd 0aa9 0d3e
00000080: 604a d2bd 0426 c63d da78 c23d 3bc2 a73d
00000090: 155b d13c 1a42 193e 4e46 a6bd 4ad8 663c
000000a0: d385 90bd 377e da3c 816d 0fbe 880f a63d
000000b0: 16a9 07be b71c a5bd de85 21bd 89d1 ebbd
000000c0: bf50 04bd f4ec 89bd 0877 8e3d d8c3 26be
000000d0: ee79 003e 71d5 043e 3198 15be 601d a73d
000000e0: 1883 14be dae8 9a3d d151 cb3d 724b a93c
000000f0: bf71 fb3d 179c ad3d 0ad0 68bb b52d 21be
00000100: f28f a03c b478 1dbe 5d32 e23c 89a3 84bd
00000110: 1a09 973c 1c4b 7d3c b980 7e3d 42b0 6abd
00000120: e844 a2bc 6d65 d43d d795 8e3d c66a b8bd
00000130: 78ad 853d fd0a e8bd 9bdc fdbd 28b0 cf3d
00000140: ef9a abbd 04d7 7a3d b29e 973d b1fe 043d
00000150: f87e afbd 49eb 28bd 1891 243d 80a7 aa3d
00000160: a5c5 823d 7e84 d13d 5f77 b23d 1e89 9bbc
00000170: 02b1 723d 915d 383e 0be9 083c 8acd 173d
00000180: 5857 023e e5e6 823d 6e45 57bc 4668 78bd
00000190: 288c 0ebc 6bfe 763d 7efe bb3d fda9 ab3d
000001a0: 4b75 0b3e 39b8 b13c 3e3e be3d 54b1 043e
000001b0: d85d 3ebd c6fc a63d 30bf bf3d 3227 383c
000001c0: 3df4 82bc d412 81bd 8f04 033e b520 d53d
000001d0: d1dd 063e 3ead 1dbe 1d0b 89bd 4c7c a1bc
000001e0: 1575 913d 9b6e 8bbd 58eb 18be 0474 c7bd
000001f0: ee95 813c ecbf e2bd 6f64 30bd e2b4 103d
00000200: 3b5f 82bd 8579 223d 160e 063e 7d67 58bd
00000210: 179f bd3d 8f43 77bd f634 003e 10c7 05be
00000220: 607f 3fbd 8ab0 d93d 1f87 f2bb 2cb0 adbd
00000230: 568a 5f3d 3796 e9bd f710 093e 1404 923d
00000240: 2905 ce3c 9666 a4bd 372b 37bd c3bd ac3d
00000250: c4cc e33d f0b0 ed3d 9638 2c3e 4df4 a6bc
00000260: d89e e83d d8b0 c5bd dcd3 89bd 8fe7 033e
00000270: 13f7 08be ad0d 573d e1b3 253e c00b 123d
00000280: 7122 a8bd e0ac 5f3d ae62 d4bc 1b9d 9d3c
00000290: bdf5 b0bd 9003 833d 6a3b 00be 185e a93c
000002a0: e3e3 febd 5828 70bd 1e8b ccbd 476e fcbd
000002b0: e6f1 0c3e c9f6 05be 08bd b43d 8944 333d
000002c0: fda6 c93d 3fff 30bd a7be 8ebd 9dbc e93c
000002d0: 697c 193e 0187 55bd 3d8b e7bc 610f 8a3d
000002e0: ab1e c0bd ad57 953d 41c8 313e fbce 2c3e
000002f0: 51fd 1d3e 8c0f bebd 1870 c33d a0d1 d63d
00000300: adfe 083e 4f96 20be ad35 11be dbaa fb3d
00000310: 147e fa3d 25fb 09bd 38d8 813d 6159 d33d
00000320: 35ed 2b3e f87a afbd 57ef debc ac38 f83d
00000330: fa89 043e 8e22 4dbd 979d 503d 2e36 ae3d
00000340: 37e0 c6bc 38d6 113d 8344 1b3e ef8a 14be
00000350: aa4b 99bc b0fd 133d a94d 9e3d 8e10 173d
00000360: 4d52 fd3d 724c 18be 1233 ae3d 4a36 873d
00000370: af34 cbbd d5aa b0bd fb58 3d3d 7afb 4e3d
00000380: bc25 fb3d 98e4 b93d 4614 a03d 100a 223e
00000390: 34ad 073e a792 c73d 40e6 a3bc fc94 57bd
000003a0: c1d4 073e 6419 8fbd f0df 1c3e 0aab edbd
000003b0: 17d9 e03c b8ac a5bd e616 a83b 2008 0f3d
000003c0: 9548 3bbd b466 123e 5e01 b63d e48b d43d
000003d0: 875c 203e 2055 703d 91ea cdbb c519 d63d
000003e0: 998d acbd 4b52 32be b825 f43d 96a8 acbd
000003f0: 9eca ab3d 76a6 00be e33b 5b3d 3511 803c
-0.0045302226 -0.104850106 0.072882876 -0.07548402 0.13645527 0.08313485 0.0670874 0.062048215
0.10713807 0.049159 0.06508267 0.10204707 0.010413342 -0.18940927 -0.020275015 0.09451565
0.09310281 0.043498807 0.027702395 -0.09009308 0.14089914 0.028286425 0.097570986 -0.004713004
0.09650091 -0.06950162 -0.038638566 0.035096005 0.1032229 -0.018150525 -0.10567306 0.13834015
-0.10268092 0.0967522 0.09495707 0.081913434 0.025556127 0.14966622 -0.08118878 0.014089653
-0.07056775 0.026671512 -0.14006616 0.08108431 -0.13248095 -0.080621175 -0.039434306 -0.11514575
-0.032303568 -0.06734648 0.06956297 -0.16285646 0.12546512 0.12972046 -0.14608838 0.081599
-0.14503133 0.07563944 0.099277146 0.020665858 0.12277555 0.084770374 -0.0035524392 -0.15740092
0.019599888 -0.15378076 0.027611906 -0.06476504 0.018436957 0.015459802 0.06213448 -0.057297
-0.019808248 0.10370908 0.069621734 -0.090047404 0.06527227 -0.11330221 -0.12395593 0.10141021
-0.083791606 0.06124021 0.074033156 0.032469455 -0.08569139 -0.04124001 0.040177435 0.08332729
0.06385354 0.10230349 0.087141745 -0.018986281 0.05925084 0.18004443 0.008356343 0.03706125
0.12728631 0.06391696 -0.013139112 -0.060646318 -0.008700408 0.060301226 0.091794 0.08382032
0.13618962 0.02169429 0.092892155 0.1295827 -0.046476215 0.081536815 0.09362638 0.011239814
-0.015985603 -0.06302419 0.12794708 0.10406629 0.13170554 -0.15398118 -0.06691573 -0.01971259
0.0710241 -0.06808206 -0.14933527 -0.09738925 0.015818562 -0.110717624 -0.04306453 0.035328753
-0.0636582 0.03966667 0.13091311 -0.05283307 0.092588596 -0.060367163 0.12520203 -0.13064218
-0.046752334 0.10629375 -0.0074013616 -0.08480868 0.054575287 -0.11405604 0.13385378 0.07129684
0.025148945 -0.08027379 -0.044718947 0.08434632 0.1112304 0.11606014 0.16818461 -0.020380164
0.11358422 -0.09652871 -0.06729862 0.12881301 -0.13375501 0.052503277 0.161819 0.035655737
-0.08209694 0.054608226 -0.02592596 0.019239953 -0.08640621 0.06397164 -0.12522665 0.02067475
-0.1244581 -0.058632225 -0.09987472 -0.12325721 0.13764152 -0.13082422 0.08825117 0.043766532
0.098463036 -0.04321217 -0.06969958 0.02853232 0.14988865 -0.052130703 -0.028264636 0.067412145
-0.093808495 0.072921135 0.17361547 0.16875832 0.15428664 -0.09280309 0.095428646 0.104892015
0.13378401 -0.15682338 -0.14180632 0.122884475 0.12231079 -0.033686776 0.063400686 0.10319782
0.16789706 -0.08568376 -0.027213736 0.12120184 0.12943259 -0.050081782 0.05093154 0.08506428
-0.024276836 0.035604686 0.15162854 -0.14506124 -0.018712837 0.036130607 0.07729656 0.036881022
0.12369213 -0.14872912 0.08505835 0.06602152 -0.09922158 -0.086263336 0.046227437 0.050532795
0.12263057 0.09076804 0.07816367 0.15824151 0.13249665 0.097447686 -0.020007253 -0.052632317
0.13264753 -0.06987265 0.153198 -0.11604889 0.027447267 -0.08089584 0.005129683 0.034919858
-0.045723516 0.1429699 0.088869795 0.103782445 0.15660296 0.05867493 -0.006284066 0.10454134
-0.08425445 -0.17414205 0.11921257 -0.08430593 0.083882555 -0.125635 0.05352391 0.015633205

arith.constant85 f4 [256, 64]
00000000: 2772 3abc 0113 d13c 63ef ca3d 8da0 553d
00000010: 3392 1abd fffc 853b 8059 abbd b574 f03c
00000020: d3ca 8dbd 6807 11bd 1ff3 713d 1c99 ff3b
00000030: aa00 b7bd d93e 693c 1b9d c3bd c2c5 b13c
00000040: 67dc 9d3d c930 c73d 4c73 f3bc e78e c13d
00000050: 4416 583d 0fef fc3c ef37 d53d bf85 b63c
00000060: 0a72 c1bc 903c fbbd 9d2d 4b3d 36eb 253e
00000070: 87ec a7bc 5abb abbb 30c0 d03d c896 e03c
00000080: a001 eabd 0c39 df3c ae6c 76b9 812b e83d
00000090: 17eb 88bd 6167 59bd 2498 113c 3e67 ef3b
000000a0: 3dfd 2f3d 58b1 e3bd 6354 003d 3d89 be3d
000000b0: 7f8f ea3c 57cc 13bc 64c6 8bbc a99d 65bd
000000c0: d96e 26bd adad 733d bac5 52bd 98c7 0ebd
000000d0: 390b 9fbc 8c19 993d bbac d13d 556d 833d
000000e0: d47a 813d 3bc1 cb3d 3b9b 263d ac79 efbd
000000f0: 304e d73b 25c6 98bd 516e eabc 787f 87bd
00000100: d070 3cbd 1559 3cbd 855e c1bb 6fde 25bb
00000110: 092b fa39 bf3b 7f3d 0da5 4d3d 6190 8f3d
00000120: 57f7 97bd 1d70 7d3d d18d e7bd 6857 16bd
00000130: f294 99bd 3e6f abbc e6d7 3abd 0b4f 993d
00000140: feb9 123d 527f a13d cd1e 8b3c 8d7b c4bc
00000150: fe7a 1b3d 6ef8 943c fd70 61bb 2fb4 293c
00000160: 18d7 1a3d 53d2 0abd 8de6 0dbe 4ba0 8b3b
00000170: 5047 10be b29d b5bc 96e3 40bd d5e8 863d
00000180: a542 7b3d bee8 6e3d afba e8bd 9b58 92bc
00000190: 563b 023c bf5e ba3d 6abb 44bd 7a76 463d
000001a0: 68fe 9f3d 544e 433b f7e1 51bd 1e16 843d
000001b0: a141 0b3d 9c62 cdbc ca2e c2bd 46fd f4bd
000001c0: c1b7 34bd 0cc1 813c a0fc b13d 5ee9 283d
000001d0: 898d 123e 1838 ae3d ed27 443d efe9 953d
000001e0: 6a5f aabb ea4f f3bd fecf f23d 568e 74bd
000001f0: eb9c d03c 7e13 393e d30b 20bd 8a6c 903c
00000200: c119 ca3d fdae ddbd 3e4d 513c f36c 443d
00000210: e8a1 ba3c 14ba 983b 22f6 97bd 334b c4bb
00000220: b957 09be 288d 4d3d 9d1b d8bd 5c4d 883d
00000230: 43bc 263d 608e 25bd 7e61 22bc d8ad 43bd
00000240: 6718 3cbd 2f90 02bd 492b 433d 0a6d 4abd
00000250: ec4a 2ebd 5c82 42bc d807 803b 6a21 a4bc
00000260: a4f5 473d 34a7 ed3b 42e9 a63d 0ace 7dbd
00000270: 9499 fc3c 78ca 9b3d 1af0 8f3c bd91 603d
00000280: 82b1 6c3d 39f2 f3bb 4d3b ff3b 0aa8 513d
00000290: 49c2 043d 3e1d bebd 36b5 433d 91f3 6a3d
000002a0: 7a7d 3dbd 0659 333e 217f 4cbc 45a9 473d
000002b0: daa0 debc b081 e3bd d0d6 643d 0994 07bb
000002c0: a425 8dbc a0dd 54bc b140 b2bd 40f1 a6bd
000002d0: 8594 dc3d 32f4 8c3d 3778 11bd 7401 043d
000002e0: b616 0a3d 3100 323d 30a2 953d 2c27 05be
000002f0: deca 173d 0309 abbc b3d4 923d c54c 29bd
00000300: 2b31 8b39 ca47 17be d06d 60bd 3dab 67bd
00000310: ec1e 4bbd 1052 a7bd d153 27bd 0ed1 88bc
00000320: a41d afbd 0d96 1abd f854 1ebd 35e8 7ebd
00000330: a1be ca3c 7ba4 313d 00f1 193d 667d 0e3c
00000340: 8c72 513d 3c53 443b 0fdd 9ebd 3017 c33c
00000350: 045c 9fbd 7dce 82bc 1ef6 a43d 3a4c 703b
00000360: eed0 a93d 4bba 37bd 88ae 8abd 381e e2bd
00000370: bfbd 4a3d b352 b13c 30a6 093e 1f79 603a
00000380: d0f3 193d 4ed9 653a 6190 a93d edad 3dbc
00000390: 66f5 003d 8083 813c 3c54 4c3d 2876 d53d
000003a0: cdfb 5fbd fd3e b13d 63c5 21bd 0f46 383c
000003b0: 54f6 073c 2266 83bd 9623 15be 08b9 dcbd
000003c0: ab7f c33c 4416 c83d 1492 f43c f841 5d3c
000003d0: b0f0 a43a 889b a4bd 2b22 153d 1be4 5abd
000003e0: 9824 ca3c 54fa 4d3d b4f9 7abd e1c3 c23d
000003f0: b721 bc3d 7bf8 66bd c29f babd 683b 9fbc
-0.011379755 0.025521757 0.09908941 0.052155066 -0.037737083 0.0040889974 -0.0836668 0.029352525
-0.06923451 -0.035407454 0.05906975 0.0078002345 -0.089356735 0.014236175 -0.0955145 0.021700744
0.07708054 0.09726102 -0.029718064 0.094510846 0.05275561 0.03087571 0.10411059 0.022280572
-0.023613948 -0.12267411 0.049604047 0.16203007 -0.020498527 -0.00524084 0.10192907 0.027415648
-0.11426091 0.027248882 -0.00023500875 0.11336423 -0.06685465 -0.053077105 0.008886371 0.0073060086
0.042966116 -0.1111781 0.031330477 0.0930352 0.028632877 -0.009020886 -0.017062373 -0.05605856
-0.040633056 0.059491802 -0.051458098 -0.034858316 -0.019414531 0.07475576 0.10238024 0.06417338
0.06322256 0.09948965 0.040675383 -0.11693129 0.0065706 -0.07459668 -0.028617056 -0.066161096
-0.046006024 -0.045983393 -0.00590116 -0.0025309583 0.0004771578 0.062312838 0.050206233 0.0700996
-0.07420223 0.061874498 -0.11306346 -0.03670445 -0.07499112 -0.020927068 -0.045616053 0.074857794
0.035821907 0.078856125 0.01698246 -0.023984695 0.03795909 0.018184867 -0.0034399622 0.0103579005
0.037802786 -0.033891987 -0.1385748 0.004261052 -0.14089704 -0.022169922 -0.047092043 0.06587378
0.061342854 0.05832743 -0.11363732 -0.017864516 0.007948717 0.09100103 -0.048030294 0.04845283
0.07812196 0.0029801326 -0.051240887 0.06449531 0.033998135 -0.025071435 -0.094815806 -0.119623706
-0.044120554 0.015839122 0.086907625 0.04123818 0.14311804 0.08506793 0.04788964 0.0732001
-0.0051993625 -0.11880477 0.118560776 -0.059706055 0.02546545 0.18073842 -0.039073776 0.01762988
0.098681934 -0.10824392 0.012774764 0.047955465 0.022782281 0.004660854 -0.07419993 -0.0059904098
-0.1341237 0.050183445 -0.10552142 0.0665538 0.040706884 -0.040418983 -0.009910939 -0.047773212
-0.04592171 -0.031875785 0.0476487 -0.049420394 -0.04255192 -0.0118719 0.003907185 -0.020035464
0.048818246 0.007252598 0.08149959 -0.061964072 0.03083495 0.07606977 0.017570544 0.054826487
0.057786472 -0.0074446467 0.0077890516 0.051185645 0.032411847 -0.09282921 0.047780238 0.05736119
-0.046262242 0.17514428 -0.012481482 0.048745412 -0.02717631 -0.1110872 0.055868924 -0.00206876
-0.017229863 -0.012992293 -0.08703745 -0.081514835 0.10770515 0.06882514 -0.035515036 0.03222795
0.033713065 0.043457214 0.073063254 -0.13003224 0.037058704 -0.02087832 0.071694754 -0.04133298
0.0002654878 -0.14773479 -0.054792225 -0.05655979 -0.049590036 -0.08169949 -0.040851418 -0.016701248
-0.085505754 -0.037740756 -0.03865525 -0.06223317 0.024749102 0.04336975 0.03758335 0.0086968895
0.05113463 0.0029956838 -0.07757007 0.023814768 -0.077812225 -0.015967602 0.08054756 0.0036666528
0.08291803 -0.044855397 -0.067715704 -0.1104092 0.049497362 0.02164588 0.13442302 0.00085629703
0.037586033 0.00087680377 0.08279491 -0.011577112 0.03148403 0.015809774 0.04988502 0.10422927
-0.054683495 0.08654592 -0.039494883 0.011247172 0.008298475 -0.06415965 -0.14564356 -0.107774794
0.023864588 0.09769872 0.029854812 0.013504498 0.0012583937 -0.08037478 0.03640954 -0.053440195
0.024675652 0.05028756 -0.06127329 0.09510017 0.09186118 -0.056389313 -0.09112503 -0.019437507

arith.constant86 f4 [256]
00000000: 95b3 1d3d 82ae 893c 49af 943b 20b1 b73b
00000010: 5c5a 3b3c 5350 953c 6f2d 9a3c f508 123c
00000020: f906 353c 468b 053d 998d 253c 6c60 a2bb
00000030: 435c eebb 1b48 a63c dc0c 233c 012b 843c
00000040: 7ee7 9f3c 3ef5 3b3a 5a46 803c 18b5 163c
00000050: 09c5 2f3d 90bd 2e3d 4e1e 623a ee7d d73c
00000060: 1967 5a3b 216e 1f3c ff25 013d 668c dc39
00000070: 6010 0c3c 4503 a63c 01d8 e4ba c25a c43b
00000080: c4c9 343c 22d1 b23c ad2b 113c 9615 553c
00000090: 39fb 943c 2f3b 663c 1257 90bb 82a7 783c
000000a0: a1eb 1cbc 73a8 5c3c 1cef 113c 090c 963c
000000b0: 380b 933c 2910 213c 2244 103c c2a8 003c
000000c0: 06e8 c13b 2333 9b3c 04e6 213c fc1a 393a
000000d0: 5b66 4e3c 634c c1ba 07b9 bd3c 6b46 3b3c
000000e0: 6903 ba3b 2e3b 64bc 30bf de3c 915d 4c3c
000000f0: 4a01 383c bf9c 893c d838 863c c1ff a73c
00000100: c6f4 843f d427 823f 132b 813f 0e71 803f
00000110: 65b6 813f 6e8e 823f f1f2 823f d1be 813f
00000120: 5441 823f 17b3 843f ae7e 813f 53c1 803f
00000130: df2d 7e3f a427 823f ecaa 813f 9bd7 833f
00000140: 7318 833f 4c5a 803f 6373 823f c1ed 803f
00000150: 2c62 893f 35f9 853f f15d 803f 1136 853f
00000160: e980 813f 0d2f 813f 8813 883f 5048 803f
00000170: d923 803f 31fb 823f 4496 803f 16ab 803f
00000180: 8402 813f 7c7f 823f 7b65 823f 94ff 813f
00000190: ebbb 823f d524 823f c30e 803f 8b05 823f
000001a0: 6c7a 7d3f 71c7 813f fcee 813f 38d1 813f
000001b0: 26d8 823f 2292 823f 80b5 813f 632f 813f
000001c0: 7621 813f a3b7 823f 5c6b 813f be32 7f3f
000001d0: 6d7e 813f 51b1 7f3f 414a 833f 2063 823f
000001e0: ea42 813f bfce 7b3f 85d2 833f 9909 833f
000001f0: 8008 823f bf78 843f 23a0 823f 5b5a 833f
00000200: c3d5 a33c facc 96bb 9bca 3a3c 6959 663c
00000210: 252b 833c 6a66 043d 025e 953c ea6b 013b
00000220: b7eb 883c 6a18 803c b09c 783c 04fe ac3b
00000230: 8ab3 6bbc 1912 113c caa5 213c 3af2 5d3c
00000240: 9e7b d23c 945a a23b c7c8 933c 7f14 9d3c
00000250: adbd b73c eeb8 bd3c a10f aa3b a143 5f3d
00000260: e520 9e3c 2199 3e3c 5ce1 96bc bd51 33bc
00000270: 8613 2d3c b615 a93c bf8d 2e3c a24d 303a
00000280: fe30 d43b 23ca 5d3c f3c6 14bc 059d 973c
00000290: 2d58 4f3c e7b2 c23c d9ce aa3b d546 9c3c
000002a0: 0051 cfbb dfec a03c 3fd4 5a3c 8dd0 003d
000002b0: 82e1 e43b 3e23 863c 6c71 163c 9b47 2f3c
000002c0: ec2a 2d3c 88a0 af3c 8f36 8d3c 7eb1 5a3c
000002d0: f3c3 443c 646d 0d3c 72f8 e23c 3b7c 183c
000002e0: 2033 323c 80ea b4bc 42fe b93c 15a4 aeb8
000002f0: 4239 5a3c 3b08 103c a5db b63c e0ea c13c
00000300: b448 2b3d 329a 243c 5234 bc3b 28e6 9e3b
00000310: 8323 3a3c 4a53 b13c 936e 913c 5e99 2e3c
00000320: 82a1 273c 7b12 e13c b531 493c 7c8e daba
00000330: 46db 0fbc 8069 103d af18 1a3c de68 8d3c
00000340: 0294 a03c 6a3a 44bb b4bf 903c ddc8 293c
00000350: 4273 0c3d c135 1e3d a860 0e3b d90a cc3c
00000360: afad 643b 858e 1b3c 5297 243d 9938 ee39
00000370: ede6 dc3b f437 9d3c 5221 a9ba fdd9 d73a
00000380: bf19 1b3c 3afc 9f3c 034c 373c f4ff 6a3c
00000390: 07a5 853c b4f4 0f3c 4479 9abb eda9 8e3c
000003a0: e328 2abc 4a4f 5a3c c2cc 083c e0ce 8d3c
000003b0: 2bf0 6c3c a056 233c 4dc7 173c 660b 023c
000003c0: e4b4 b63b 8498 933c c478 343c 4637 0a3b
000003d0: bb8c 2b3c 24e3 48bb d1dd b93c 4283 1f3c
000003e0: 2da3 e03b 3722 6abc f3d0 d73c 7261 4d3c
000003f0: 6a7b 3b3c 6090 4b3c c0c9 863c 1258 b73c
0.03850134 0.016806845 0.004537497 0.0056058317 0.011435118 0.018226778 0.018820493 0.008913268
0.011049026 0.032603525 0.01010456 -0.004955342 -0.007274182 0.020298054 0.009951796 0.016133787
0.019519564 0.0007170028 0.015658546 0.00919845 0.042912517 0.04266125 0.00086257316 0.026305165
0.003332561 0.009730847 0.031530377 0.00042066275 0.008548826 0.02026523 -0.0017459394 0.0059922645
0.011034433 0.021828238 0.008860511 0.013005635 0.018186199 0.014052196 -0.004404911 0.015176656
-0.009577663 0.013467896 0.008907106 0.018316286 0.017949685 0.009830513 0.008805307 0.007852735
0.005917552 0.018945282 0.0098815 0.0007061211 0.012597646 -0.0014747496 0.023159517 0.011430363
0.005676676 -0.013930125 0.027190775 0.01247348 0.011230776 0.016798375 0.016384527 0.020507695
1.0387199 1.0168405 1.009127 1.0034502 1.0133787 1.0199716 1.023039 1.0136358
1.0176187 1.0367154 1.0116785 1.0058998 0.99288744 1.0168347 1.0130286 1.0300173
1.0241836 1.0027556 1.0191463 1.0072557 1.0733085 1.0466677 1.0028669 1.0407125
1.0117465 1.0092484 1.063096 1.0022068 1.001094 1.0232908 1.0045857 1.0052211
1.0078893 1.0195155 1.0187219 1.0156121 1.0213598 1.016749 1.0004505 1.0157942
0.99014926 1.013899 1.0151057 1.0141973 1.0222213 1.0200846 1.0133514 1.0092586
1.0088336 1.0212291 1.0110888 0.996868 1.0116707 0.9987994 1.0257035 1.01865
1.0098546 0.98362345 1.029862 1.0237304 1.0158844 1.0349349 1.020512 1.0261949
0.01999939 -0.004602072 0.011400844 0.014059403 0.016011784 0.032324232 0.018233303 0.001974816
0.01671396 0.015636642 0.015174076 0.0052793045 -0.014386067 0.0088544125 0.009866187 0.013546521
0.02569371 0.0049546454 0.018040074 0.019174812 0.022429312 0.02315947 0.0051898514 0.054507855
0.019302795 0.011633188 -0.018418007 -0.010944781 0.010563737 0.020640235 0.010653912 0.00067254354
0.006475567 0.013536963 -0.009080636 0.01850749 0.0126553 0.023766948 0.0052126464 0.019076744
-0.0063267946 0.019644199 0.0133562675 0.03144889 0.0069848904 0.016374227 0.009182315 0.010698224
0.010569315 0.021438852 0.01723793 0.0133479815 0.012009609 0.008632038 0.027706359 0.009306963
0.010876447 -0.022084475 0.022704247 -8.327529e-05 0.013319315 0.008791025 0.022321532 0.023671567
0.041817382 0.010046529 0.0057435418 0.004849214 0.011361006 0.02164616 0.017752921 0.010656683
0.010231378 0.027474632 0.0122799175 -0.0016674544 -0.008780306 0.035256863 0.009405299 0.017261919
0.019601826 -0.0029942044 0.017669536 0.010362831 0.034289606 0.038625482 0.0021725092 0.024907516
0.0034893563 0.0094944285 0.040183373 0.00045437066 0.0067413957 0.01919172 -0.0012903607 0.0016468164
0.009466588 0.01952945 0.011187556 0.014343251 0.016314043 0.008786369 -0.004714163 0.017415011
-0.010385725 0.013324568 0.008349599 0.01731056 0.014461557 0.0099693835 0.009263826 0.007937288
0.005575763 0.018017061 0.011015121 0.0021090074 0.0104705645 -0.0030652964 0.022688778 0.009735884
0.0068553896 -0.014290384 0.026344752 0.01253544 0.011442998 0.012424558 0.016453624 0.022380862

arith.constant90 f4 [128, 64]
00000000: d885 4c3d 27bc c3bd 08fa 89bd cea7 293e
00000010: 4b67 4dbd 3d68 f7bd 0056 f23d f66f 7d3d
00000020: 6a47 98bd f271 c13d 47a1 34be 48b6 bb3c
00000030: 6641 b43d 4119 d33c 814e 373e 5823 c13d
00000040: 6e56 b03b c54b 18bd 8805 4bbe dcf3 163e
00000050: 7759 8ebe d94a 473d 6889 45be 4d07 07be
00000060: 7803 083e 8784 463e 8ad2 fcbd 4113 9dbd
00000070: 7635 1cbe e425 9fb8 3e65 e6bd 026f d1b6
00000080: 3391 5bbe b200 f03d 0dad 9a3d 0758 90bd
00000090: 6fd2 cf3c 574f 1fbe ca03 153d c83a 22be
000000a0: 3768 b53d e725 88bd 4ead 233e ae7b 09bc
000000b0: 256a 223e c142 c03d 6462 1ebe 3569 f8bd
000000c0: e152 583c 55a1 afbc 829d 41bc 2613 e33d
000000d0: 5bdc 44bd 4e06 1ebe 5c17 133e 1552 493d
000000e0: 1740 103d 4cb4 203e 11a6 4f3e 5792 dd3c
000000f0: f996 623c 3384 a1bd c939 ebbd 60e9 ebbd
00000100: 2eb4 c6bd 027d d73d b6ba 213e d19e 973c
00000110: b263 563d 9c8d 66bd 4095 ce3d 02b9 afbd
00000120: 666b 0cbd 8c98 2c3c a872 efbc 3212 96bd
00000130: ae46 20be 5a91 2ebd 6954 a4bd 0d77 a33d
00000140: 75d3 a13d 625b 1f3e 2d01 dd3d 689b b23c
00000150: 16d3 9f3d ecba 3b3d b47a c1bd ba1d 21be
00000160: 4b50 b13d c407 c0bd d70d 8d3e f98c 8abd
00000170: 53a9 493d adff d6bc b8c4 cabd a9d3 e83d
00000180: 5c7b 2ebe 0826 e8bd 606b d5bc 6a40 b1bc
00000190: 8743 0f3e 87e3 26be 4a05 31be e3ba 8d3d
000001a0: 28f2 20be a368 173d 3921 b03d a67c 063e
000001b0: 650b 203e 6aa3 423d 90ea 0b3e b6bf 12be
000001c0: 2f9f d83c 4d2f 06be 2ded 2e3c a535 a13d
000001d0: d4ae ddbc 57c3 fcbd 783b 25be c510 5ebd
000001e0: 6c17 97bd 7d63 12be a2d0 f83c 0db6 69bd
000001f0: b9c6 1bbe b5cc 063e ec61 40ba d6a9 103e
00000200: 7bf5 19be 0ae0 16bc 468f 3dbb e69d 2f3e
00000210: 76dd ec3c ac01 343e 44a7 2c3e 84e5 20be
00000220: 2b25 dc3d ad1e 1fbe 70fc de3d 8d2e 063e
00000230: 4359 1dbe 5ae3 e53d ee3e 03bd 40d3 d43d
00000240: 7011 1dbe 06e7 263e bb12 e63d f5f5 353c
00000250: 6c77 0d3e 4d9c fbbd 0834 22bd e6ec 91ba
00000260: f143 3d3b 1f4d ccbd 978a c1bb 34f4 24bd
00000270: 94aa 383e 8ad3 c7bd 6520 033e 4a39 e7bd
00000280: 4605 0dbe d571 3e3e 04e4 48bd ad28 f03d
00000290: 1949 13be d541 c43d 2f6d c63d 2810 00be
000002a0: 76bf abbd 8c57 103e d977 d93d 148b 983d
000002b0: 565b c7bc 11a2 173e 56df ae3d 1167 263e
000002c0: 19d4 8cbc e27a 533d c597 323e 94aa a53d
000002d0: a9ec 15be 6e5c 27bc d562 0cbe 56e0 debc
000002e0: f030 0a3e 4735 183e 9f4e 1b3e c686 ebbd
000002f0: d159 18bd 971a 223e 4200 03be 9fb8 2b3e
00000300: c827 383d 9aa7 c13d 8c73 9dbd 7ab0 08be
00000310: 9aaa c13d 9d7e 793d 35a1 d1bd ba9c 1c3e
00000320: ca14 f83c bdfc 3a3e 73c2 a0bd 6e37 39bd
00000330: f096 05be d80e 3dbd c0c2 e6bd 484c 37bd
00000340: fda2 ebbd 1541 243e 840c 91bd 0556 d63d
00000350: c8c1 1ebe 698b 2d3e 3742 19be a05f da3d
00000360: 0963 5abb 3496 9f3d e556 5fbd a646 14be
00000370: 6b38 2ebe dc21 713d 2571 b5bd 6881 fa3d
00000380: 9a35 573d 89b3 cfbd 8275 103e c967 b1bd
00000390: c879 b9bd 0c37 803d 32a7 c63c ecd3 693c
000003a0: fa34 d23d 12aa 1cbd 7cb5 a23d ea10 f5bd
000003b0: de9e 713d 89cc 043c 8d39 46bd 6431 d1bd
000003c0: b034 113e 286d 47bd a1e7 6f3b 56cb b93d
000003d0: 364c a8bd 22e5 5dbd d9f4 e9bd 2e85 663d
000003e0: 580f 863c 6d48 003e d287 e73d bbf9 3fbd
000003f0: ddbd 3b3d 76e1 363e 6940 093e 2acb 2f3e
0.04993233 -0.095573716 -0.06737143 0.16567919 -0.050147336 -0.12080429 0.118328094 0.061874352
-0.07435496 0.094455615 -0.17639647 0.022914067 0.08801536 0.025768878 0.1790104 0.094305694
0.005381397 -0.037181634 -0.19826329 0.14741462 -0.2780263 0.048655365 -0.19290698 -0.13186379
0.13282573 0.19386493 -0.12344845 -0.07669688 -0.15254769 -7.5887685e-05 -0.11249779 -6.2416084e-06
-0.21442108 0.117188826 0.07552538 -0.0704804 0.025368897 -0.1555761 0.036380567 -0.15842736
0.08857768 -0.06647854 0.15984079 -0.008391304 0.15860803 0.09387732 -0.1546722 -0.12129442
0.013203354 -0.021439234 -0.011817338 0.11087637 -0.04806171 -0.15432093 0.1436438 0.049150545
0.03521737 0.15693778 0.20278193 0.02704732 0.01382994 -0.07886543 -0.11485631 -0.11519122
-0.09702335 0.1052189 0.15793881 0.018508347 0.05234117 -0.056287393 0.10087061 -0.08580209
-0.03428211 0.010534417 -0.029229477 -0.07327689 -0.15651962 -0.042619087 -0.080239125 0.079816915
0.0790166 0.15562204 0.1079124 0.02180262 0.07803933 0.04583256 -0.09447232 -0.15733996
0.08657893 -0.09376481 0.2754962 -0.0676517 0.049233746 -0.026244963 -0.099008024 0.11368496
-0.17039245 -0.11335379 -0.026052177 -0.02163716 0.13990603 -0.16297732 -0.17287174 0.069204114
-0.15717375 0.036965024 0.08600087 0.13133487 0.15629347 0.047519125 0.13663697 -0.14330944
0.026443092 -0.13103981 0.010676664 0.0787156 -0.027060904 -0.123419456 -0.16135967 -0.05421521
-0.07377514 -0.14295764 0.030372921 -0.057058383 -0.15212525 0.13164027 -0.000733881 0.14127287
-0.1503505 -0.0092086885 -0.002892451 0.17150077 0.028914195 0.17578763 0.16860682 -0.15712553
0.10749277 -0.15539046 0.108879924 0.13103695 -0.15366082 0.112250045 -0.032042436 0.10391855
-0.15338683 0.16299066 0.11234041 0.011106004 0.13815087 -0.122856714 -0.039600402 -0.0011133223
0.0028879608 -0.09975647 -0.005906414 -0.040271953 0.1803382 -0.09757145 0.12805326 -0.11290224
-0.13771543 0.18598111 -0.049045578 0.11726508 -0.14383353 0.09582869 0.09688794 -0.12506163
-0.08386128 0.14095896 0.10618562 0.07448402 -0.024335545 0.14807917 0.08538692 0.16250254
-0.01719098 0.051630862 0.17440708 0.08089176 -0.1464106 -0.010214908 -0.13709576 -0.027206581
0.1349523 0.14864074 0.1516671 -0.11500315 -0.03719503 0.15830456 -0.12793067 0.16769646
0.044959813 0.094557956 -0.076880544 -0.1334857 0.09456368 0.060911763 -0.10235826 0.15294161
0.03028335 0.18260475 -0.07849588 -0.045218877 -0.1304586 -0.046156734 -0.11267614 -0.04475048
-0.11505697 0.16040452 -0.07082465 0.10465626 -0.15503609 0.16947712 -0.14966665 0.1066277
-0.003332319 0.07792321 -0.05452623 -0.14480075 -0.17013709 0.05887018 -0.08859471 0.122317135
0.052541353 -0.101416655 0.14107326 -0.086623736 -0.09056431 0.06260499 0.024249647 0.0142717175
0.10264011 -0.03824813 0.07944772 -0.11966117 0.0589894 0.008105406 -0.04839473 -0.10214499
0.14180255 -0.048688084 0.0036606567 0.090719864 -0.08217661 -0.054173596 -0.11423654 0.056279354
0.016364738 0.12527628 0.113052025 -0.04686902 0.045835365 0.17859444 0.13403477 0.17167345

arith.constant91 f4 [128, 32]
00000000: ece5 8a3d 979f 46bd 7452 e03b cb40 a53d
00000010: 10e7 033d fcbf b0bd b2f7 97bd c802 51bd
00000020: 51ff 623d d340 b5bc 27fd 5cbc 6fd0 bebd
00000030: 40f2 4f3e c3ad 01bd a6a1 95bd 4d74 02bd
00000040: 4670 49be 678e 89bd 05bf 1e3d 4c10 513d
00000050: c13d 623d 3ec6 a7bd 1c2d 2f3e ee20 d43d
00000060: 261b 88bd 3765 213b 38bf dc3b f0b6 bcbc
00000070: dfbd 133e 74d4 4abe e81b a23d 636d 48bd
00000080: a312 9c3d 23e9 0a3e 7ca7 eebd bd26 473e
00000090: a201 e3bd 4a99 703e a278 f63b b3ab 89bd
000000a0: 89a0 0fbc 7162 183e f177 933d 7504 3e3e
000000b0: fd68 11bc ca49 423e a284 dd3c 4b89 3d3d
000000c0: b744 e8bd 7d6a 0b3c 9d9a 833d 7267 a3bd
000000d0: f998 d6bb b21c 1e3e 05c5 9e3d 2ff3 d83d
000000e0: aa1d 913d 5b18 2cbc d2f4 ed3d ff48 c8bd
000000f0: b612 db3d 9cf4 823c 3efb 2d3e db45 8f3d
00000100: 21ec 9fbd 7874 8dbd d5ce d53d ecb7 5abd
00000110: e309 003d 05fa 17bd efd5 dc3b 023d 06be
00000120: d0f6 b6bd 7fce 2dbd aaa7 f3ba 3965 af3d
00000130: 5733 5b3e 15e4 7fbe 8a6c debc 2b02 96bd
00000140: 8832 f53d 3e80 d2bd 57b2 983d a7c2 223c
00000150: 5ebe c03d 7761 063e 4e5e 0a3e 5498 8abd
00000160: a91a 453e be41 853c 4922 ef3d be73 52be
00000170: 8f31 133e 99c7 b3bc ac7c 833d 3adf 96bb
00000180: 6bc4 803d 79d4 3d3c 1a48 f23d 29dc 5bbd
00000190: 0496 00be 3fc4 0ebd 2778 133e 0a72 1e3d
000001a0: 11aa e33d a620 43bd 0b3a cbbd 5ad3 543e
000001b0: 191d 1bbe 7b56 4f3c 175f b9bd b090 eb3d
000001c0: 3309 9bbc d133 603c 7545 afba 7897 743d
000001d0: 8eec de3d 2208 75be d7d1 db3d 587d cabd
000001e0: e2f3 813c 95af 87bd 3afd 8b3d dcc2 ef3d
000001f0: 109b cebd eafa ffbc 976f 86bd 1918 1e3e
00000200: 7484 5ebd 1623 d73b cf9d 893d 669c 653d
00000210: 61b7 023e a3c4 c33d bba6 453d 883e 9abd
00000220: 0114 503d 0c60 333e 2aae 873e e2cb c13d
00000230: 2da1 42bd 8311 2fbc bb96 a83d 4404 97bc
00000240: 71e5 003e 3d2b e9bc 5edb 02be a8e2 35bd
00000250: 6e2f ac3d 2e58 45b9 1a69 4abc 6892 13bd
00000260: 9c8d 6bbd 8397 1c3d f59d d7bc 4b74 c03d
00000270: e772 613d e001 873d 3f97 1d3e 77db 59ba
00000280: 16c1 343d e115 c03d 4b9f 85bb 831d 063e
00000290: 1d78 45bc 3fe7 eb3d d9cb ddbc 13fa 3539
000002a0: 9018 3e3c b40a bd3b 7d0c 0f3e 0d59 cc3d
000002b0: 276f f53d d41c 8abc a663 db3b c3ef e23b
000002c0: 8cc4 47bc e99c eebd 2c23 6fbb ded5 1fbb
000002d0: 61ad 2a3d 73eb de3c d9c9 973d a4bc c93d
000002e0: 4fd8 9d3d 494b 36bb a451 603b b456 9d3d
000002f0: cead 0f3e 022d cc3d 1c17 193e 9143 363e
00000300: 827f c13c c0d3 2cbd ce8c 863d f450 c9bc
00000310: c8f8 20be 1db4 b33d 33a3 9d3c 5178 efbd
00000320: 2c46 e43d 06fc 033d a3c7 32be 1a04 8dbc
00000330: 2e0d 053d cb9f cabb b866 40be adac 273e
00000340: 1c31 6fbd b336 acbd 843c 073e af39 1dbc
00000350: 6b2a c43d dd1b 1cbe 7fd5 c73d f1a0 b53d
00000360: fc9e c5bd cab5 cb3d 7c5a 2fbc 393c 1b3d
00000370: d503 663c d4da 17bd 056b 8a3d 6105 873d
00000380: 46cd f3ba 92aa 84bd 1038 7cbd 970c 56bd
00000390: 2777 82bd afa2 d13d e0b8 1dbc f8c6 a6bd
000003a0: 8f9e b2bd cc10 18be 843e 403e f44a 6bbe
000003b0: fb93 a5bd baec 3a3d a0ef 70bd 0674 cd3d
000003c0: 5598 2c3d 4122 aebd 0d3e 0a3d 4da1 1f3e
000003d0: 608c 1cbe a5c5 aabd e07e f0bc c836 5fbd
000003e0: b39d 8dbd 1e86 393c 53b1 9abd 6081 e3bd
000003f0: 0fd1 0f3d 88d8 1fbd 3f96 74bd cdbc 4c3e
0.06782135 -0.04849204 0.0068457667 0.08068999 0.03220278 -0.08630368 -0.07420291 -0.051028043
0.05541927 -0.022125637 -0.013488091 -0.09317099 0.20307255 -0.031659853 -0.073062226 -0.031849194
-0.19671735 -0.06716614 0.03875639 0.051040933 0.055234674 -0.081921086 0.17107052 0.10357843
-0.06645803 0.002462698 0.0067366622 -0.02303645 0.14427899 -0.19807607 0.07915479 -0.048932444
0.07620742 0.13565497 -0.11653039 0.19448371 -0.11084296 0.23495975 0.007521705 -0.06722202
-0.008766302 0.14881302 0.072006114 0.18556388 -0.008875129 0.18973461 0.027040783 0.04627351
-0.11341231 0.0085092755 0.064259745 -0.07978715 -0.0065489975 0.15440634 0.07752422 0.105932586
0.07085736 -0.010503854 0.116189614 -0.09779548 0.10696928 0.01598578 0.16990373 0.06995746
-0.0780871 -0.0690698 0.10439841 -0.053398058 0.03125943 -0.03710367 0.00673937 -0.1310921
-0.089337945 -0.04243326 -0.0018589396 0.085642286 0.21406303 -0.2498935 -0.027151365 -0.07324632
0.11972529 -0.102783665 0.074558906 0.009934104 0.0941131 0.13123117 0.13512537 -0.067673355
0.19248451 0.0162667 0.11676461 -0.20551965 0.14374374 -0.021945762 0.06420264 -0.0046042474
0.06287464 0.011586302 0.118301585 -0.053676758 -0.12557226 -0.034855124 0.14401303 0.038682975
0.11116422 -0.047638558 -0.0992318 0.20783749 -0.15147819 0.012654896 -0.0905134 0.11502206
-0.018925285 0.013684229 -0.001337214 0.059714764 0.10884963 -0.23928884 0.10733383 -0.09887189
0.015863363 -0.066252865 0.068354085 0.11707088 -0.100881696 -0.031247575 -0.06564253 0.1543888
-0.054325536 0.006565462 0.06719553 0.056057356 0.12765266 0.0955899 0.04825471 -0.07531458
0.050800327 0.17517108 0.26500064 0.09462716 -0.04751699 -0.010685327 0.082318746 -0.018434651
0.12587525 -0.028463 -0.12778994 -0.04440561 0.08407484 -0.00018820234 -0.01235416 -0.036028296
-0.057508096 0.03823043 -0.026320437 0.09397181 0.05504122 0.065921545 0.15389727 -0.0008310596
0.044129454 0.09379173 -0.004077827 0.13097195 -0.012052563 0.11518716 -0.027074741 0.00017354665
0.011602536 0.005769098 0.13969608 0.099779226 0.11984091 -0.01685945 0.0066952286 0.0069255545
-0.0121928565 -0.11651022 -0.003648947 -0.002438895 0.041669253 0.02721188 0.07411546 0.098504335
0.07707273 -0.002781587 0.003422835 0.07682553 0.14031145 0.09969522 0.14950222 0.17799212
0.02362037 -0.042194128 0.06569825 -0.024574734 -0.15719903 0.08774588 0.019242859 -0.116928704
0.11146197 0.03222277 -0.17458968 -0.01721387 0.032483272 -0.0061835996 -0.18789184 0.16374464
-0.058396444 -0.084088705 0.13206679 -0.009596272 0.09578403 -0.15245004 0.09757518 0.08868588
-0.096494645 0.09946783 -0.0107027255 0.03789923 0.014039 -0.037073925 0.067586936 0.06592823
-0.0018600605 -0.06477846 -0.061576903 -0.0522581 -0.06370383 0.102361076 -0.009626597 -0.08143419
-0.08721649 -0.14850157 0.18773848 -0.22977811 -0.08084866 0.045635916 -0.058822274 0.10031895
0.042137463 -0.08502627 0.033750582 0.15588875 -0.15287924 -0.08338479 -0.029357374 -0.054495603
-0.06914844 0.01132348 -0.07553353 -0.11108661 0.035111483 -0.03902486 -0.0597136 0.19993897

arith.constant92 f4 [128]
00000000: df93 833c a053 813c c995 ff3b 9439 173c
00000010: 230c b63c 7cc4 253d 06aa 573c cabc 72bb
00000020: 3863 29bc 145d c6bb 0d9a e13b 4240 8fbc
00000030: ac48 7d3c c4bb a73c 3b39 0a3d 7f41 3d3c
00000040: 6643 ea3b 3038 2f3c bd75 c53c 9ecf 06bc
00000050: b1d3 383d c7f3 cd3c b99b d53c 68a0 aa3c
00000060: 6b55 d53c 0744 073c ac73 2b3c 2958 803c
00000070: 2991 023c 2be6 1a3d 6cb8 31bc 37a1 de3b
00000080: d8b2 823f ce39 833f 35c2 813f b025 843f
00000090: f18d 823f 37fb 853f 5247 853f a85d 813f
000000a0: 51a7 7d3f 7e7a 7f3f 5478 823f 6144 7f3f
000000b0: 1aeb 833f 94bf 833f 8264 863f 972e 843f
000000c0: 2249 863f 5494 823f f5b2 833f 08d1 7d3f
000000d0: 9207 863f d78a 833f d7ec 833f 9cf7 833f
000000e0: 4f6b 823f f91e 823f 9d50 823f 98f6 813f
000000f0: 8ca7 813f 3a2b 873f 7b42 7f3f 3284 823f
00000100: 4ef1 d43c 8d92 c73c 258e 6b3c 1db7 ca3b
00000110: 8c34 e13c fede 413d eb03 093d 2ea5 27bc
00000120: dc72 89bc a8ad 82ba 5f79 663c c87e 04bd
00000130: e62d d73c 08ee c6bb 6185 143d d593 933c
00000140: 0dee 123c 8855 7d3c d2ab 743c 90d8 15bc
00000150: 6463 a53c 1e26 ea3c f3d6 263d 81f7 cb3c
00000160: 3337 f83c ae37 3f3a 51be 383c af19 533c
00000170: 9d81 683b 68a5 1d3d a57b 15bd d0fb b93c
00000180: 6ab8 8a3c 1041 273c 397b 023c 4d66 a43c
00000190: 241e b63c a7df cd3c 0c3e 9e3a 1c5c d43c
000001a0: e5c8 38bc 331e a0bb 6199 363c cdcc 80bc
000001b0: 543b c33c 1cf8 963c a2c1 023d 0aef 503c
000001c0: a2ce d73b 5d08 783c c797 d63c 2015 06bc
000001d0: 77de 273d f478 f63c 8ed6 2f3d 4a76 9e3c
000001e0: 2379 123d b6e3 aa3b 103d 813c 596a 083c
000001f0: 0cb7 7c3c 0318 a43c 17a1 f0bb 5208 4e3c
0.016061721 0.015786946 0.007799838 0.009230036 0.022222584 0.040470585 0.013163095 -0.0037038797
-0.010338597 -0.0060535762 0.0068848194 -0.017486695 0.015459221 0.020475276 0.033745985 0.01155126
0.007149148 0.0106945485 0.024103994 -0.008228211 0.04512376 0.025140656 0.02607523 0.02082844
0.026041707 0.008255965 0.01046459 0.015667038 0.007969179 0.03781716 -0.010847192 0.0067941207
1.0210829 1.0252016 1.0137392 1.0324001 1.0199567 1.046729 1.041239 1.0106707
0.9908343 0.99796283 1.0192971 0.9971371 1.0306122 1.029284 1.0499423 1.0326718
1.0491068 1.0201516 1.0288988 0.9914708 1.047106 1.0276746 1.0306653 1.0309939
1.0188998 1.0165702 1.0180851 1.015338 1.0129256 1.0560067 0.99710816 1.0196593
0.02599397 0.024361873 0.014377152 0.0061863796 0.027490877 0.047331803 0.033451002 -0.010232253
-0.016778402 -0.0009969966 0.014067023 -0.03234747 0.026267003 -0.006070856 0.036260013 0.018014828
0.008967889 0.015462287 0.014933543 -0.009145871 0.020188995 0.028582629 0.040732335 0.024898292
0.030299759 0.00072943687 0.011275844 0.012884541 0.0035477646 0.03848782 -0.03649487 0.022703081
0.016933639 0.010208383 0.007963949 0.020068312 0.022231169 0.02513106 0.0012072935 0.025922827
-0.011278366 -0.0048864125 0.011144967 -0.015722657 0.023832 0.018428855 0.031922944 0.012752304
0.006585912 0.015138713 0.02619542 -0.0081837475 0.040983643 0.030086972 0.042929225 0.019343514
0.035760056 0.0052151335 0.015776187 0.0083261365 0.015424501 0.02003098 -0.007343422 0.012575226
