data1/ai_models/model_simple/ai_autoencoder.tflite (tflite, 191212 bytes, 16 tensors)

arith.constant15 f2 [32, 32]
000000 6e b3 ee b2 34 31 dc 2a 61 2d a0 31 54 25 01 34
       -0.2322 -0.2166 0.1626 0.0536 0.08405 0.1758 0.02081 0.2502
000010 e4 a8 ba 1f 10 31 63 31 d2 31 27 b1 8e 32 c8 a4
       -0.0382 0.007545 0.1582 0.1683 0.1819 -0.161 0.2048 -0.01868
000020 d1 34 8a 33 dd ac ca 2e 75 a8 73 34 1f 1c a2 24
       0.301 0.2356 -0.076 0.1061 -0.03482 0.278 0.004025 0.0181
000030 f5 34 76 ad 86 b4 91 b2 87 2b a1 33 12 ae c1 ae
       0.3098 -0.0853 -0.2827 -0.2052 0.0588 0.2384 -0.09485 -0.1055
000040 4a 31 ea 30 23 b2 50 34 37 b0 b9 25 b6 32 c9 ae
       0.1653 0.1536 -0.1918 0.2695 -0.1317 0.02235 0.2097 -0.106
000050 c5 a4 d7 32 2d 33 7a ad 8a b0 13 1d 27 b1 02 34
       -0.01863 0.2137 0.2242 -0.0856 -0.1418 0.004955 -0.161 0.2505
000060 bb 31 da b4 cb 33 91 34 22 b1 1f b4 57 2c aa 2d
       0.1791 -0.3032 0.2435 0.2854 -0.1604 -0.2576 0.0678 0.0885
000070 18 b2 53 b1 00 32 2c aa c6 b4 6c 30 44 30 11 b4
       -0.1904 -0.1664 0.1875 -0.04822 -0.2983 0.1382 0.1333 -0.2542
000080 79 33 20 b0 f8 31 16 b2 1a a8 59 b0 38 b5 b2 32
       0.2335 -0.1289 0.1865 -0.1902 -0.03204 -0.1359 -0.3262 0.2092
000090 7b b4 ed 30 3b 34 e5 a8 fe b3 18 ac 03 33 c9 b2
       -0.28 0.1539 0.2644 -0.03824 -0.2498 -0.06396 0.2191 -0.212
0000a0 af a7 14 92 a9 30 c2 a8 21 30 c5 b1 70 ac a2 ac
       -0.03001 -0.000742 0.1456 -0.03717 0.129 -0.1803 -0.06934 -0.0724
0000b0 fc 33 d0 2c 26 aa cd ad 3e b3 2d ac 4c b4 69 35
       0.2495 0.0752 -0.04803 -0.09064 -0.2263 -0.06525 -0.2686 0.3381
0000c0 4f b2 4e b4 5e 2d 6a 2c b9 ab 87 32 42 2f c3 34
       -0.1971 -0.269 0.08386 0.069 -0.06033 0.204 0.1134 0.2976
0000d0 cc b4 05 2c db a9 04 30 1b b4 c7 23 24 b3 78 b4
       -0.2998 0.0628 -0.04575 0.1255 -0.2566 0.01519 -0.2231 -0.2793
0000e0 b9 20 a1 34 cf b0 c9 2b 8a b4 2d b4 28 b2 df ac
       0.009224 0.2893 -0.1503 0.06082 -0.2837 -0.261 -0.1924 -0.0761
0000f0 19 30 2c 30 04 b3 97 34 88 b2 37 30 3e a4 83 b4
       0.128 0.1304 -0.2192 0.2869 -0.2041 0.1317 -0.01657 -0.282
000100 96 b4 f7 34 ab aa 0c 22 41 34 12 b2 83 b4 b7 32
       -0.2866 0.3103 -0.0521 0.01181 0.2659 -0.1897 -0.282 0.2098
000110 0b 2a 88 a7 79 32 be b4 2d 28 b6 b2 2b a9 b3 30
       0.0472 -0.02942 0.2023 -0.2964 0.03262 -0.2097 -0.04037 0.1469
000120 84 33 b1 32 14 b4 66 32 1a ae 75 b4 af b0 07 33
       0.2349 0.2091 -0.255 0.2 -0.09534 -0.2786 -0.1464 0.2196
000130 42 29 ba 9d 28 b4 e6 32 eb 34 a7 32 72 b1 e8 28
       0.04108 -0.005592 -0.2598 0.2156 0.3074 0.2079 -0.1702 0.03833
000140 73 b4 68 ae 35 34 a8 b4 5d b2 08 30 2d b3 ce 31
       -0.278 -0.1001 0.263 -0.291 -0.1989 0.126 -0.2242 0.1814
000150 52 33 fc b2 d7 31 da 30 49 b5 a7 ae 18 33 18 b2
       0.2288 -0.2183 0.1825 0.1516 -0.3303 -0.10394 0.2217 -0.1904
000160 37 34 a8 33 85 2e 69 32 1e b3 97 a8 e2 b0 01 b5
       0.2634 0.2393 0.10187 0.2003 -0.2224 -0.03586 -0.1526 -0.3127
000170 62 b0 66 33 34 28 15 32 83 2a 09 2a ae b1 67 b2
       -0.137 0.2312 0.03284 0.1901 0.05087 0.04715 -0.1775 -0.2001
000180 12 31 ea 2e 48 af 04 b2 96 a9 c0 31 03 b4 78 33
       0.1584 0.10803 -0.1138 -0.188 -0.04364 0.1797 -0.2507 0.2334
000190 ff b3 df b4 3d 2b e3 ae 17 28 6e 29 29 31 e6 ac
       -0.2499 -0.3044 0.05655 -0.1076 0.03195 0.04242 0.1613 -0.07654
0001a0 b8 32 53 34 91 21 89 34 4c b2 00 b4 0d b4 62 b2
       0.21 0.2703 0.01087 0.2834 -0.1968 -0.25 -0.2532 -0.1995
0001b0 dd 2a 19 32 e4 1e 1a b3 75 a9 96 b4 28 a9 e9 a1
       0.05362 0.1906 0.00673 -0.2219 -0.04263 -0.2866 -0.04028 -0.01154
0001c0 ee 33 5f 34 0e 1b a1 1f 77 29 47 37 34 34 83 2a
       0.2478 0.2732 0.003445 0.00745 0.0427 0.4548 0.2627 0.05087
0001d0 7d 33 20 30 e8 34 f9 ae 49 30 d2 34 d1 2c 74 33
       0.234 0.1289 0.3066 -0.10895 0.1339 0.3013 0.07526 0.2329
0001e0 9e b4 26 a0 a6 aa b1 28 22 32 04 b4 4f 2d 4e ac
       -0.2886 -0.0081 -0.05194 0.03665 0.1917 -0.251 0.08295 -0.06726
0001f0 7d 34 4e 25 04 23 e6 2f 55 36 76 b4 bd a4 4e a8
       0.2805 0.02072 0.0137 0.1234 0.3958 -0.2788 -0.01851 -0.03363

arith.constant16 f2 [7, 64]
000000 06 26 5f 30 52 34 92 32 c5 b3 34 ac 22 af 39 30
       0.02353 0.1366 0.27 0.2053 -0.2428 -0.0657 -0.11145 0.132
000010 44 2d 74 2d e3 b1 97 b2 45 a9 e7 28 9a 2f 79 a8
       0.0823 0.0852 -0.184 -0.2059 -0.04117 0.0383 0.1188 -0.03494
000020 5a 32 96 2f 48 30 02 25 08 b4 27 29 64 27 ff b3
       0.1985 0.1185 0.1338 0.01956 -0.252 0.04025 0.02887 -0.2499
000030 73 32 72 34 36 ac ed 32 19 34 a7 33 33 b4 d2 af
       0.2015 0.2778 -0.0658 0.2164 0.256 0.2391 -0.2625 -0.1222
000040 b3 32 83 ab d1 33 7a 33 c9 ad 7a 28 08 30 e6 ac
       0.2094 -0.0587 0.2443 0.2336 -0.0904 0.03497 0.126 -0.07654
000050 0d ad 99 b1 6f 32 8f 30 e0 30 ea b1 97 aa 99 b4
       -0.0789 -0.1749 0.201 0.1425 0.1523 -0.1848 -0.05148 -0.2874
000060 e5 ad 8c b1 3f 30 d9 b3 60 31 f8 30 ea b1 a2 b4
       -0.0921 -0.1733 0.1327 -0.2452 0.168 0.1553 -0.1848 -0.2896
000070 fe 31 01 b0 45 b0 5b a6 85 b2 fc b1 13 b4 1f ad
       0.1873 -0.1251 -0.1334 -0.02483 -0.2037 -0.187 -0.2546 -0.08
000080 a4 32 96 32 5d b0 40 34 24 b1 78 b4 65 b1 87 2f
       0.2075 0.2058 -0.1364 0.2656 -0.1606 -0.2793 -0.1686 0.1176
000090 17 2a 4b b2 11 a4 42 9f 65 33 07 30 73 34 9b ac
       0.04758 -0.1967 -0.01588 -0.007088 0.2311 0.1259 0.278 -0.07196
0000a0 7c b1 82 2c 94 33 ed af 01 30 30 21 d2 31 cf aa
       -0.1714 0.07043 0.2368 -0.12384 0.1251 0.01013 0.1819 -0.0532
0000b0 7b 34 50 32 73 ac 2c 33 9e b2 1d 2d 40 26 4c 34
       0.28 0.1973 -0.0695 0.2241 -0.2068 0.0799 0.02441 0.2686
0000c0 e9 1e 1a 2d c4 24 ca b1 5f b2 44 33 a5 b0 7f b2
       0.00675 0.0797 0.01862 -0.1809 -0.1991 0.227 -0.1451 -0.203
0000d0 31 33 54 34 94 ad 60 b4 30 b4 6c ab 7e b1 4f 32
       0.2247 0.2705 -0.08716 -0.2734 -0.2617 -0.05798 -0.1716 0.1971
0000e0 f4 26 4e 35 ca b4 71 ae 8d 31 e6 b0 1e 2c b5 b2
       0.02716 0.3315 -0.2993 -0.10065 0.1735 -0.1531 0.06433 -0.2096
0000f0 3e 34 a3 2c a4 2e 9e 2d 6f 30 7a ae 1a 30 a7 32
       0.2651 0.07245 0.10376 0.08777 0.1385 -0.1012 0.1282 0.2079
000100 69 aa c9 34 3d af 20 a7 a0 35 ca b4 0d 34 81 ad
       -0.05008 0.299 -0.1131 -0.02783 0.3516 -0.2993 0.2532 -0.086
000110 4e 31 ed 2a e5 b1 4c b0 4e ae 77 aa b1 2b 41 b3
       0.1658 0.0541 -0.1842 -0.1343 -0.0985 -0.0505 0.0601 -0.2267
000120 0f ab 70 af 2c a8 40 33 89 30 d2 34 bf b1 bf b3
       -0.05515 -0.1162 -0.0326 0.2266 0.1417 0.3013 -0.1796 -0.2421
000130 a5 ae c9 29 a2 33 07 b1 0b 34 2d 34 fd b2 f6 33
       -0.1038 0.0452 0.2385 -0.1571 0.2527 0.261 -0.2184 0.2488
000140 35 ae cf 33 a5 30 0c 34 b8 b4 e4 b4 f3 31 94 2d
       -0.097 0.244 0.1451 0.253 -0.295 -0.3057 0.1859 0.08716
000150 72 2b 72 31 d0 31 32 2f 95 b4 0d b3 da af 53 32
       0.05817 0.1702 0.1816 0.1124 -0.2864 -0.2203 -0.1227 0.1976
000160 03 34 bd ae 1b ab 8b 30 e6 ab 80 2d 26 b5 fe 32
       0.2507 -0.1053 -0.0555 0.142 -0.0617 0.08594 -0.3218 0.2185
000170 ce b3 22 b2 2e b2 85 33 c1 ae 22 b1 82 b3 e7 a5
       -0.2439 -0.1917 -0.1931 0.235 -0.1055 -0.1604 -0.2346 -0.02306
000180 23 a5 c1 ae b6 ae eb 33 6f b0 d6 b2 dc 33 59 31
       -0.02007 -0.1055 -0.10486 0.2474 -0.1385 -0.2136 0.2456 0.1671
000190 a0 b2 80 ad ae 2f 46 30 b5 b0 78 ac ce 32 bc ad
       -0.207 -0.08594 0.12 0.1335 -0.1471 -0.0698 0.2126 -0.0896
0001a0 37 af 8e 29 da af b3 34 02 a9 79 1e 0f af 30 b3
       -0.11273 0.0434 -0.1227 0.2937 -0.03912 0.00632 -0.1103 -0.2246
0001b0 5c 28 61 33 55 af 96 b1 9c 30 01 9d 39 26 5e 2c
       0.03406 0.2306 -0.11456 -0.1746 0.144 -0.004887 0.0243 0.06824
0001c0 b8 33 02 ac e9 30 7d 31 53 b0 bd 2c 42 34 48 aa
       0.2412 -0.0626 0.1534 0.1715 -0.1351 0.07404 0.266 -0.04907
0001d0 21 34 f9 30 c7 b1 2d 30 7e b0 ed a4 66 b2 a5 a1
       0.258 0.1554 -0.1805 0.1305 -0.1404 -0.01924 -0.2 -0.011024
0001e0 ac 2d 50 b1 c2 a5 26 b1 c2 36 e0 31 75 b3 2a b2
       0.0886 -0.166 -0.02249 -0.1609 0.4224 0.1836 -0.233 -0.1926
0001f0 61 2d 7e a8 2d 31 c1 34 61 23 86 b4 64 b4 09 b4
       0.08405 -0.0351 0.1617 0.297 0.01441 -0.2827 -0.2744 -0.2522

arith.constant80 f2 [7]
000000 55 a3 35 a7 06 a8 2d a8 a6 27 22 25 6b a8
       -0.01432 -0.02815 -0.03143 -0.03262 0.02988 0.02005 -0.03452

arith.constant81 f2 [32]
000000 1d 22 ff 23 6f 2b b1 19 d4 26 d6 a7 82 a8 7a 20
       0.01194 0.01562 0.05807 0.002779 0.02667 -0.03061 -0.03522 0.00874
000010 40 a3 5f 25 89 25 e1 1b fb 21 8b 27 28 a4 e4 23
       -0.01416 0.02098 0.02162 0.003847 0.01168 0.02946 -0.01624 0.01541
000020 5e 29 00 00 25 a5 58 28 dd a5 db 19 66 a9 d3 1f
       0.04193 0.0 -0.0201 0.03394 -0.0229 0.00286 -0.04218 0.00764
000030 07 1e b5 28 88 27 9c 29 2f 28 00 00 ab a5 bd 29
       0.005886 0.03677 0.02942 0.04382 0.03268 0.0 -0.02214 0.04483

arith.constant84 f2 [256]
000000 ee 28 4d 24 a5 1c be 1d db 21 ab 24 d1 24 90 20
       0.0385 0.0168 0.004536 0.005608 0.01144 0.01823 0.01881 0.00891
000010 a8 21 2c 28 2c 21 13 9d 73 9f 32 25 18 21 21 24
       0.01105 0.0326 0.0101 -0.004955 -0.007275 0.0203 0.00995 0.01613
000020 ff 24 e0 11 02 24 b6 20 7e 29 76 29 11 13 bc 26
       0.01952 0.000717 0.01566 0.0092 0.0429 0.04266 0.0008626 0.0263
000030 d3 1a fb 20 09 28 e4 0e 61 20 30 25 27 97 23 1e
       0.003332 0.00973 0.03152 0.0004206 0.00855 0.02026 -0.001746 0.005993
000040 a6 21 97 25 89 20 a9 22 a8 24 32 23 83 9c c5 23
       0.01103 0.02184 0.00886 0.01301 0.01819 0.01405 -0.004406 0.015175
000050 e7 a0 e5 22 8f 20 b0 24 98 24 09 21 82 20 05 20
       -0.009575 0.013466 0.0089 0.01831 0.01794 0.009834 0.008804 0.00785
000060 0f 1e da 24 0f 21 c9 11 73 22 0a 96 ee 25 da 21
       0.005917 0.01895 0.00988 0.000706 0.012596 -0.001474 0.02316 0.01143
000070 d0 1d 22 a3 f6 26 63 22 c0 21 4d 24 32 24 40 25
       0.005676 -0.01393 0.02719 0.012474 0.01123 0.0168 0.01639 0.02051
000080 28 3c 11 3c 09 3c 04 3c 0e 3c 14 3c 18 3c 0e 3c
       1.039 1.017 1.009 1.004 1.014 1.02 1.023 1.014
000090 12 3c 26 3c 0c 3c 06 3c f1 3b 11 3c 0d 3c 1f 3c
       1.018 1.037 1.012 1.006 0.9927 1.017 1.013 1.03
0000a0 19 3c 03 3c 14 3c 07 3c 4b 3c 30 3c 03 3c 2a 3c
       1.024 1.003 1.02 1.007 1.073 1.047 1.003 1.041
0000b0 0c 3c 09 3c 41 3c 02 3c 01 3c 18 3c 05 3c 05 3c
       1.012 1.009 1.063 1.002 1.001 1.023 1.005 1.005
0000c0 08 3c 14 3c 13 3c 10 3c 16 3c 11 3c 00 3c 10 3c
       1.008 1.02 1.019 1.016 1.021 1.017 1.0 1.016
0000d0 ec 3b 0e 3c 0f 3c 0f 3c 17 3c 15 3c 0e 3c 09 3c
       0.99 1.014 1.015 1.015 1.022 1.0205 1.014 1.009
0000e0 09 3c 16 3c 0b 3c fa 3b 0c 3c fe 3b 1a 3c 13 3c
       1.009 1.021 1.011 0.997 1.012 0.999 1.025 1.019
0000f0 0a 3c de 3b 1f 3c 18 3c 10 3c 24 3c 15 3c 1b 3c
       1.01 0.9834 1.03 1.023 1.016 1.035 1.0205 1.026
000100 1f 25 b6 9c d6 21 33 23 19 24 23 28 ab 24 0b 18
       0.02 -0.0046 0.0114 0.01406 0.016 0.03232 0.01823 0.001974
000110 47 24 01 24 c5 23 68 1d 5e a3 89 20 0d 21 f0 22
       0.01671 0.01564 0.015175 0.00528 -0.01439 0.00886 0.009865 0.01355
000120 94 26 13 1d 9e 24 e9 24 be 25 ee 25 50 1d fa 2a
       0.0257 0.004955 0.01804 0.01918 0.02243 0.02316 0.005188 0.0545
000130 f1 24 f5 21 b7 a4 9b a1 69 21 49 25 74 21 82 11
       0.0193 0.011635 -0.01842 -0.01095 0.01057 0.02065 0.01065 0.0006723
000140 a2 1e ee 22 a6 a0 bd 24 7b 22 16 26 56 1d e2 24
       0.006477 0.013535 -0.00908 0.01851 0.01266 0.02377 0.00521 0.01907
000150 7b 9e 07 25 d7 22 07 28 27 1f 31 24 b4 20 7a 21
       -0.00633 0.01964 0.01336 0.03146 0.006985 0.01637 0.009186 0.0107
000160 69 21 7d 25 6a 24 d6 22 26 22 6b 20 18 27 c4 20
       0.01057 0.02144 0.01724 0.01335 0.01201 0.00863 0.02771 0.00931
000170 92 21 a7 a5 d0 25 75 85 d2 22 80 20 b7 25 0f 26
       0.01088 -0.02208 0.0227 -8.327e-05 0.01332 0.00879 0.02232 0.02367
000180 5a 29 25 21 e2 1d f7 1c d1 21 8b 25 8b 24 75 21
       0.0418 0.01005 0.005745 0.00485 0.01136 0.02165 0.01775 0.01066
000190 3d 21 09 27 4a 22 d4 96 7f a0 83 28 d1 20 6b 24
       0.01023 0.02748 0.01228 -0.001667 -0.00878 0.03525 0.00941 0.01726
0001a0 05 25 22 9a 86 24 4e 21 64 28 f2 28 73 18 60 26
       0.0196 -0.002995 0.01767 0.01036 0.0343 0.03864 0.002172 0.0249
0001b0 25 1b dc 20 25 29 72 0f e7 1e ea 24 49 95 bf 16
       0.003489 0.00949 0.0402 0.0004544 0.00674 0.0192 -0.00129 0.001647
0001c0 d9 20 00 25 ba 21 58 23 2d 24 80 20 d4 9c 75 24
       0.00947 0.01953 0.011185 0.01434 0.01631 0.00879 -0.004715 0.01741
0001d0 51 a1 d2 22 46 20 6e 24 68 23 1b 21 be 20 10 20
       -0.01038 0.01332 0.00835 0.0173 0.014465 0.00997 0.00926 0.007935
0001e0 b6 1d 9d 24 a4 21 52 18 5c 21 47 9a cf 25 fc 20
       0.005577 0.01802 0.01102 0.00211 0.01047 -0.003065 0.02269 0.009735
0001f0 05 1f 51 a3 bf 26 6b 22 dc 21 5d 22 36 24 bb 25
       0.006855 -0.01429 0.02635 0.012535 0.011444 0.01243 0.01645 0.02238

arith.constant85 f2 [256, 64]
000000 d4 a1 89 26 57 2e ad 2a d5 a8 30 1c 5b ad 84 27
       -0.01138 0.02553 0.09906 0.05215 -0.03775 0.00409 -0.0837 0.02936
000010 6e ac 88 a8 90 2b fd 1f b8 ad 4a 23 1d ae 8e 25
       -0.0692 -0.0354 0.05908 0.0078 -0.08936 0.01424 -0.0955 0.0217
000020 ef 2c 3a 2e 9c a7 0c 2e c1 2a e7 27 aa 2e b4 25
       0.0771 0.0973 -0.02972 0.0945 0.05276 0.03087 0.1041 0.02228
000030 0c a6 da af 59 2a 2f 31 3f a5 5e 9d 86 2e 05 27
       -0.02362 -0.1227 0.0496 0.162 -0.0205 -0.00524 0.1019 0.02742
000040 50 af fa 26 b3 8b 41 2f 47 ac cb aa 8d 20 7b 1f
       -0.11426 0.02725 -0.000235 0.11334 -0.06683 -0.05307 0.00889 0.007305
000050 80 29 1e af 03 28 f4 2d 54 27 9e a0 5e a4 2d ab
       0.04297 -0.1112 0.03134 0.093 0.02863 -0.00902 -0.01706 -0.05606
000060 33 a9 9d 2b 96 aa 76 a8 f8 a4 c9 2c 8d 2e 1b 2c
       -0.04062 0.05948 -0.05145 -0.03485 -0.01941 0.07477 0.10236 0.06415
000070 0c 2c 5e 2e 35 29 7c af ba 1e c6 ac 53 a7 3c ac
       0.06323 0.0995 0.04068 -0.11694 0.00657 -0.0746 -0.02861 -0.06616
000080 e4 a9 e3 a9 0b 9e 2f 99 d1 0f fa 2b 6d 2a 7d 2c
       -0.04602 -0.046 -0.0059 -0.002531 0.000477 0.06232 0.0502 0.0701
000090 c0 ac ec 2b 3c af b3 a8 cd ac 5b a5 d7 a9 ca 2c
       -0.0742 0.0619 -0.11304 -0.0367 -0.075 -0.02092 -0.04562 0.0748
0000a0 96 28 0c 2d 59 24 24 a6 dc 28 a8 24 0c 9b 4e 21
       0.03583 0.07886 0.01698 -0.02399 0.03796 0.01819 -0.00344 0.01036
0000b0 d7 28 57 a8 6f b0 5d 1c 82 b0 ad a5 07 aa 37 2c
       0.0378 -0.0339 -0.1385 0.00426 -0.1409 -0.02217 -0.0471 0.06586
0000c0 da 2b 77 2b 46 af 93 a4 12 20 d3 2d 26 aa 34 2a
       0.06134 0.05832 -0.11365 -0.01787 0.00795 0.091 -0.04803 0.04846
0000d0 00 2d 1a 1a 8f aa 21 2c 5a 28 6b a6 11 ae a8 af
       0.0781 0.00298 -0.05124 0.0645 0.034 -0.02507 -0.0948 -0.1196
0000e0 a6 a9 0e 24 90 2d 47 29 94 30 72 2d 21 2a af 2c
       -0.04413 0.01584 0.0869 0.04123 0.1431 0.0851 0.04788 0.0732
0000f0 53 9d 9a af 96 2f a4 ab 85 26 c9 31 00 a9 83 24
       -0.0052 -0.1188 0.1185 -0.0597 0.02547 0.1808 -0.03906 0.01762
000100 51 2e ed ae 8a 22 23 2a d5 25 c6 1c c0 ac 22 9e
       0.0987 -0.1082 0.01277 0.04794 0.02278 0.00466 -0.0742 -0.00599
000110 4b b0 6c 2a c1 ae 42 2c 36 29 2c a9 13 a1 1d aa
       -0.1342 0.05017 -0.1055 0.0665 0.0407 -0.0404 -0.00991 -0.04776
000120 e1 a9 15 a8 19 2a 53 aa 72 a9 14 a2 00 1c 21 a5
       -0.04593 -0.0319 0.04764 -0.0494 -0.04254 -0.01187 0.003906 -0.02003
000130 40 2a 6d 1f 37 2d ee ab e5 27 de 2c 80 24 05 2b
       0.04883 0.00725 0.0815 -0.06195 0.03084 0.07605 0.01758 0.05484
000140 66 2b a0 9f fa 1f 8d 2a 26 28 f1 ad 1e 2a 58 2b
       0.0578 -0.007446 0.00779 0.05118 0.0324 -0.09283 0.0478 0.05737
000150 ec a9 9b 31 64 a2 3d 2a f5 a6 1c af 27 2b 3d 98
       -0.04626 0.1752 -0.01248 0.04874 -0.02718 -0.1111 0.05588 -0.00207
000160 69 a4 a7 a2 92 ad 38 ad e5 2e 68 2c 8c a8 20 28
       -0.01723 -0.01299 -0.08704 -0.08154 0.1077 0.06885 -0.03552 0.03223
000170 51 28 90 29 ad 2c 29 b0 be 28 58 a5 97 2c 4a a9
       0.03372 0.04346 0.07306 -0.13 0.03705 -0.02087 0.0717 -0.04132
000180 5a 0c ba b0 03 ab 3d ab 59 aa 3b ad 3b a9 47 a4
       0.0002656 -0.1477 -0.05478 -0.05655 -0.0496 -0.0817 -0.04086 -0.01671
000190 79 ad d5 a8 f3 a8 f7 ab 56 26 8d 29 d0 28 74 20
       -0.0855 -0.03775 -0.03867 -0.06223 0.02475 0.04337 0.0376 0.0087
0001a0 8c 2a 23 1a f7 ac 19 26 fb ac 16 a4 28 2d 82 1b
       0.05115 0.002996 -0.0776 0.02382 -0.0778 -0.01596 0.08057 0.003666
0001b0 4f 2d be a9 55 ac 11 af 56 2a 8b 25 4d 30 04 13
       0.08295 -0.04486 -0.0677 -0.1104 0.0495 0.02165 0.1344 0.0008564
0001c0 d0 28 2f 13 4d 2d ed a1 08 28 0c 24 63 2a ac 2e
       0.0376 0.000877 0.0828 -0.01157 0.0315 0.01581 0.0499 0.10425
0001d0 00 ab 8a 2d 0e a9 c2 21 40 20 1b ac a9 b0 e6 ae
       -0.0547 0.08655 -0.0395 0.011246 0.0083 -0.06415 -0.1456 -0.1078
0001e0 1c 26 41 2e a5 27 ea 22 28 15 25 ad a9 28 d7 aa
       0.02386 0.0977 0.02986 0.013504 0.001259 -0.0804 0.0364 -0.05344
0001f0 51 26 70 2a d8 ab 16 2e e1 2d 38 ab d5 ad fa a4
       0.02467 0.0503 -0.06128 0.0951 0.09186 -0.0564 -0.0911 -0.01944

arith.constant86 f2 [256, 7]
000000 a4 9c b6 ae aa 2c d5 ac 5e 30 52 2d 4b 2c f1 2b
       -0.00453 -0.10486 0.0729 -0.0755 0.1365 0.0831 0.0671 0.06204
000010 db 2e 4b 2a 2a 2c 88 2e 55 21 10 b2 31 a5 0d 2e
       0.1071 0.04916 0.06506 0.10205 0.010414 -0.1895 -0.02028 0.09454
000020 f5 2d 91 29 18 27 c4 ad 82 30 3e 27 3f 2e d3 9c
       0.0931 0.0435 0.02771 -0.0901 0.1409 0.02829 0.0976 -0.00471
000030 2d 2e 73 ac f2 a8 7e 28 9b 2e a6 a4 c3 ae 6d 30
       0.0965 -0.0695 -0.03864 0.0351 0.1032 -0.01816 -0.10565 0.1383
000040 92 ae 31 2e 14 2e 3e 2d 8b 26 ca 30 32 ad 37 23
       -0.10266 0.09674 0.095 0.0819 0.02556 0.1497 -0.0812 0.01409
000050 84 ac d4 26 7b b0 30 2d 3d b0 29 ad 0c a9 5f af
       -0.07056 0.02667 -0.14 0.08105 -0.1324 -0.0806 -0.03943 -0.1152
000060 23 a8 4f ac 74 2c 36 b1 04 30 27 30 ad b0 39 2d
       -0.03232 -0.0673 0.0696 -0.1628 0.1255 0.1298 -0.1461 0.0816
000070 a4 b0 d7 2c 5b 2e 4a 25 dc 2f 6d 2d 47 9b 09 b1
       -0.145 0.0756 0.0993 0.02066 0.1228 0.0848 -0.003553 -0.1573
000080 04 25 ec b0 12 27 25 ac b8 24 ea 23 f4 2b 56 ab
       0.01959 -0.1538 0.02762 -0.06476 0.01843 0.01546 0.06213 -0.0573
000090 12 a5 a3 2e 75 2c c3 ad 2d 2c 40 af ef af 7e 2e
       -0.0198 0.1037 0.06964 -0.09 0.06525 -0.1133 -0.12396 0.10144
0000a0 5d ad d7 2b bd 2c 28 28 7c ad 47 a9 25 29 55 2d
       -0.0838 0.06125 0.07404 0.03247 -0.0857 -0.04123 0.0402 0.0833
0000b0 16 2c 8c 2e 94 2d dc a4 96 2b c3 31 47 20 be 28
       0.06384 0.1023 0.08716 -0.01898 0.05927 0.18 0.008354 0.03705
0000c0 13 30 17 2c ba a2 c3 ab 74 a0 b8 2b e0 2d 5d 2d
       0.1273 0.0639 -0.01314 -0.06064 -0.0087 0.0603 0.0918 0.0838
0000d0 5c 30 8e 25 f2 2d 26 30 f3 a9 38 2d fe 2d c1 21
       0.1362 0.0217 0.0929 0.1296 -0.04648 0.08154 0.0936 0.01124
0000e0 18 a4 09 ac 18 30 a9 2e 37 30 ed b0 48 ac 0c a5
       -0.01599 -0.06305 0.1279 0.10406 0.1317 -0.1539 -0.0669 -0.01971
0000f0 8c 2c 5b ac c7 b0 3c ae 0d 24 16 af 83 a9 86 28
       0.07104 -0.06805 -0.1493 -0.0974 0.01582 -0.1107 -0.04306 0.03534
000100 13 ac 14 29 30 30 c3 aa ed 2d ba ab 02 30 2e b0
       -0.06366 0.03967 0.1309 -0.05283 0.0926 -0.06036 0.1252 -0.1306
000110 fc a9 ce 2e 94 9f 6e ad fc 2a 4d af 49 30 90 2c
       -0.04675 0.1063 -0.0074 -0.08484 0.05457 -0.1141 0.1339 0.0713
000120 70 26 23 ad b9 a9 66 2d 1e 2f 6e 2f 62 31 38 a5
       0.02515 -0.08026 -0.0447 0.08435 0.1112 0.1161 0.1682 -0.02039
000130 45 2f 2e ae 4f ac 1f 30 48 b0 b8 2a 2e 31 90 28
       0.1136 -0.09656 -0.0673 0.1288 -0.1338 0.0525 0.1619 0.03564
000140 41 ad fd 2a a3 a6 ed 24 88 ad 18 2c 02 b0 4b 25
       -0.0821 0.0546 -0.02592 0.01924 -0.0864 0.06396 -0.1252 0.02068
000150 f7 af 81 ab 64 ae e3 af 68 30 30 b0 a6 2d 9a 29
       -0.12445 -0.05862 -0.09985 -0.1232 0.1377 -0.1309 0.08826 0.04376
000160 4d 2e 88 a9 76 ac 4e 27 cc 30 ac aa 3c a7 50 2c
       0.09845 -0.0432 -0.0697 0.02853 0.1499 -0.05212 -0.02826 0.0674
000170 01 ae ab 2c 8e 31 66 31 f0 30 f0 ad 1c 2e b7 2e
       -0.0938 0.07294 0.1736 0.1687 0.1543 -0.0928 0.09546 0.1049
000180 48 30 05 b1 8a b0 dd 2f d4 2f 50 a8 0f 2c 9b 2e
       0.1338 -0.1569 -0.1418 0.12286 0.1223 -0.0337 0.0634 0.1032
000190 5f 31 7c ad f7 a6 c2 2f 24 30 69 aa 85 2a 72 2d
       0.1678 -0.0857 -0.0272 0.1212 0.1294 -0.05008 0.05093 0.0851
0001a0 37 a6 8f 28 da 30 a4 b0 ca a4 a0 28 f2 2c b9 28
       -0.02428 0.0356 0.1516 -0.145 -0.0187 0.03613 0.0773 0.0369
0001b0 eb 2f c2 b0 72 2d 3a 2c 5a ae 85 ad eb 29 78 2a
       0.1237 -0.1487 0.0851 0.06604 -0.09924 -0.08624 0.04623 0.05054
0001c0 d9 2f cf 2d 01 2d 10 31 3d 30 3d 2e 1f a5 bd aa
       0.1226 0.09076 0.0782 0.1582 0.1324 0.0975 -0.02 -0.05264
0001d0 3f 30 79 ac e7 30 6d af 07 27 2d ad 41 1d 78 28
       0.1327 -0.0699 0.1532 -0.116 0.02745 -0.0809 0.00513 0.0349
0001e0 da a9 93 30 b0 2d a4 2e 03 31 83 2b 6f 9e b1 2e
       -0.04572 0.143 0.08887 0.10376 0.1566 0.0587 -0.006283 0.10455
0001f0 64 ad 93 b1 a1 2f 65 ad 5e 2d 05 b0 da 2a 01 24
       -0.0842 -0.1742 0.1192 -0.0843 0.08386 -0.1256 0.05353 0.01564

arith.constant90 f2 [128]
000000 1d 24 0b 24 fd 1f ba 20 b0 25 2e 29 bd 22 96 9b
       0.01607 0.0158 0.0078 0.00923 0.02222 0.04047 0.01316 -0.003704
000010 4b a1 33 9e 0d 1f 7a a4 ea 23 3e 25 52 28 ea 21
       -0.01034 -0.006054 0.006886 -0.01749 0.01546 0.02048 0.03375 0.01155
000020 52 1f 7a 21 2c 26 36 a0 c7 29 70 26 ad 26 55 25
       0.00715 0.0107 0.02411 -0.008224 0.04514 0.02515 0.02608 0.02083
000030 ab 26 3a 20 5c 21 03 24 15 20 d7 28 8e a1 f5 1e
       0.02605 0.008255 0.01047 0.01567 0.00797 0.0378 -0.01085 0.006794
000040 16 3c 1a 3c 0e 3c 21 3c 14 3c 30 3c 2a 3c 0b 3c
       1.021 1.025 1.014 1.032 1.02 1.047 1.041 1.011
000050 ed 3b fc 3b 14 3c fa 3b 1f 3c 1e 3c 33 3c 21 3c
       0.9907 0.998 1.02 0.997 1.03 1.029 1.05 1.032
000060 32 3c 15 3c 1e 3c ef 3b 30 3c 1c 3c 1f 3c 20 3c
       1.049 1.0205 1.029 0.9917 1.047 1.027 1.03 1.031
000070 13 3c 11 3c 13 3c 10 3c 0d 3c 39 3c fa 3b 14 3c
       1.019 1.017 1.019 1.016 1.013 1.056 0.997 1.02
000080 a8 26 3d 26 5c 23 56 1e 0a 27 0f 2a 48 28 3d a1
       0.026 0.02437 0.01437 0.006187 0.0275 0.04733 0.03345 -0.01023
000090 4c a4 15 94 34 23 24 a8 b9 26 37 9e a4 28 9d 24
       -0.01678 -0.000997 0.01407 -0.03235 0.02626 -0.00607 0.03625 0.01802
0000a0 97 20 eb 23 a5 23 af a0 2b 25 51 27 37 29 60 26
       0.008965 0.015465 0.01493 -0.00915 0.02019 0.02858 0.04074 0.0249
0000b0 c2 27 fa 11 c6 21 99 22 44 1b ed 28 ac a8 d0 25
       0.0303 0.0007296 0.01128 0.012886 0.003548 0.03848 -0.0365 0.0227
0000c0 56 24 3a 21 14 20 23 25 b1 25 6f 26 f2 14 a3 26
       0.01694 0.01021 0.007965 0.02007 0.02223 0.02513 0.001207 0.02592
0000d0 c6 a1 01 9d b5 21 06 a4 1a 26 b8 24 16 28 87 22
       -0.01128 -0.004887 0.01115 -0.01572 0.02383 0.01843 0.03192 0.01275
0000e0 be 1e c0 23 b5 26 31 a0 3f 29 b4 27 7f 29 f4 24
       0.006584 0.01514 0.0262 -0.00819 0.041 0.03009 0.04294 0.01935
0000f0 94 28 57 1d 0a 24 43 20 e6 23 21 25 85 9f 70 22
       0.03577 0.005215 0.01578 0.00832 0.01543 0.02003 -0.007343 0.01257

arith.constant91 f2 [128, 32]
000000 57 2c 35 aa 03 1f 2a 2d 1f 28 86 ad c0 ac 88 aa
       0.0678 -0.0485 0.006847 0.0807 0.0322 -0.0863 -0.0742 -0.05103
000010 18 2b aa a5 e8 a2 f7 ad 80 32 0d a8 ad ac 14 a8
       0.05542 -0.02213 -0.01349 -0.0932 0.2031 -0.03165 -0.07306 -0.03186
000020 4c b2 4c ac f6 28 89 2a 12 2b 3e ad 79 31 a1 2e
       -0.1968 -0.06714 0.03876 0.05106 0.05524 -0.0819 0.171 0.1036
000030 41 ac 0b 19 e6 1e e6 a5 9e 30 57 b2 11 2d 43 aa
       -0.06647 0.002462 0.006737 -0.02304 0.1443 -0.1981 0.07916 -0.04892
000040 e1 2c 57 30 75 af 39 32 18 af 85 33 b4 1f 4d ac
       0.07623 0.1356 -0.1165 0.1945 -0.11084 0.235 0.007523 -0.0672
000050 7d a0 c3 30 9c 2c f0 31 8b a0 12 32 ec 26 ec 29
       -0.008766 0.1488 0.072 0.1855 -0.00887 0.1897 0.02704 0.04626
000060 42 af 5b 20 1d 2c 1b ad b5 9e f1 30 f6 2c c8 2e
       -0.1134 0.00851 0.0643 -0.0798 -0.00655 0.1544 0.0775 0.10596
000070 89 2c 61 a1 70 2f 42 ae d9 2e 18 24 70 31 7a 2c
       0.07086 -0.010506 0.1162 -0.0978 0.107 0.01599 0.1699 0.06995
000080 ff ac 6c ac ae 2e d6 aa 00 28 c0 a8 e7 1e 32 b0
       -0.07806 -0.0691 0.1044 -0.0534 0.03125 -0.0371 0.00674 -0.1311
000090 b8 ad 6e a9 9d 97 7b 2d da 32 ff b3 f3 a6 b0 ac
       -0.08936 -0.04242 -0.001859 0.08563 0.2141 -0.2499 -0.02715 -0.07324
0000a0 aa 2f 94 ae c6 2c 16 21 06 2e 33 30 53 30 55 ac
       0.11975 -0.1028 0.0746 0.00993 0.0941 0.1312 0.1351 -0.0677
0000b0 29 32 2a 24 79 2f 94 b2 9a 30 9e a5 1c 2c b7 9c
       0.1925 0.01627 0.11676 -0.2056 0.1438 -0.02194 0.0642 -0.004604
0000c0 06 2c ef 21 92 2f df aa 05 b0 76 a8 9c 30 f4 28
       0.06287 0.01159 0.1183 -0.05368 -0.1256 -0.03485 0.144 0.0387
0000d0 1d 2f 19 aa 5a ae a7 32 d9 b0 7b 22 cb ad 5d 2f
       0.11115 -0.04764 -0.09924 0.2079 -0.1515 0.01266 -0.0905 0.11505
0000e0 d8 a4 02 23 7a 95 a5 2b f7 2e a8 b3 df 2e 54 ae
       -0.01892 0.01369 -0.001337 0.05972 0.1088 -0.2393 0.10736 -0.0989
0000f0 10 24 3d ac 60 2c 7e 2f 75 ae 00 a8 33 ac f1 30
       0.01587 -0.0662 0.06836 0.11707 -0.1009 -0.03125 -0.0656 0.1544
000100 f4 aa b9 1e 4d 2c 2d 2b 16 30 1e 2e 2d 2a d2 ac
       -0.05432 0.006565 0.0672 0.05606 0.1277 0.0956 0.04825 -0.0753
000110 81 2a 9b 31 3d 34 0e 2e 15 aa 79 a1 45 2d b8 a4
       0.0508 0.1752 0.265 0.0946 -0.04752 -0.01069 0.08234 -0.01843
000120 07 30 49 a7 17 b0 af a9 61 2d 2b 8a 53 a2 9d a8
       0.1259 -0.02846 -0.1278 -0.0444 0.08405 -0.0001882 -0.01235 -0.03604
000130 5c ab e5 28 bd a6 04 2e 0c 2b 38 2c ed 30 cf 92
       -0.0575 0.03824 -0.02632 0.094 0.05505 0.0659 0.1539 -0.000831
000140 a6 29 01 2e 2d 9c 31 30 2c a2 5f 2f ee a6 b0 09
       0.04413 0.0938 -0.004078 0.131 -0.012054 0.1152 -0.02707 0.0001736
000150 f1 21 e8 1d 78 30 63 2e ab 2f 51 a4 db 1e 17 1f
       0.011604 0.005768 0.1396 0.0998 0.1198 -0.01686 0.006695 0.006924
000160 3e a2 75 af 79 9b ff 98 55 29 f7 26 be 2c 4e 2e
       -0.01219 -0.1165 -0.003649 -0.00244 0.04166 0.0272 0.0741 0.0985
000170 ef 2c b2 99 03 1b eb 2c 7d 30 61 2e c9 30 b2 31
       0.0771 -0.00278 0.003424 0.07684 0.1403 0.0997 0.1495 0.178
000180 0c 26 67 a9 34 2c 4b a6 08 b1 9e 2d ed 24 7c af
       0.02362 -0.0422 0.0657 -0.02458 -0.1572 0.08777 0.01924 -0.11694
000190 22 2f 20 28 96 b1 68 a4 28 28 55 9e 03 b2 3d 31
       0.11145 0.03223 -0.1746 -0.01721 0.03247 -0.006184 -0.1879 0.1637
0001a0 7a ab 62 ad 3a 30 ea a0 21 2e e1 b0 3f 2e ad 2d
       -0.0584 -0.0841 0.1321 -0.0096 0.09576 -0.1525 0.0976 0.0887
0001b0 2d ae 5e 2e 7b a1 da 28 30 23 bf a8 53 2c 38 2c
       -0.0965 0.0995 -0.010704 0.0379 0.01404 -0.03708 0.06757 0.0659
0001c0 9e 97 25 ac e2 ab b0 aa 14 ac 8d 2e ee a0 36 ad
       -0.00186 -0.06476 -0.06158 -0.05225 -0.0637 0.10236 -0.00963 -0.0814
0001d0 95 ad c1 b0 02 32 5a b3 2d ad d7 29 87 ab 6c 2e
       -0.0872 -0.1486 0.1877 -0.2297 -0.0809 0.04562 -0.0588 0.10034
0001e0 65 29 71 ad 52 28 fd 30 e4 b0 56 ad 84 a7 fa aa
       0.04214 -0.085 0.03375 0.1559 -0.1528 -0.0834 -0.02936 -0.0545
0001f0 6d ac cc 21 d6 ac 1c af 7f 28 ff a8 a5 ab 66 32
       -0.06915 0.01132 -0.07556 -0.1111 0.03513 -0.03903 -0.05972 0.2

arith.constant92 f2 [128, 64]
000000 64 2a 1e ae 50 ac 4d 31 6b aa bb af 93 2f eb 2b
       0.04993 -0.0956 -0.0674 0.1656 -0.05014 -0.1208 0.11835 0.06186
000010 c2 ac 0c 2e a5 b1 de 25 a2 2d 99 26 ba 31 09 2e
       -0.07434 0.0945 -0.1764 0.02292 0.088 0.02577 0.179 0.0943
000020 83 1d c2 a8 58 b2 b8 30 73 b4 3a 2a 2c b2 38 b0
       0.005383 -0.03717 -0.1982 0.1475 -0.278 0.04865 -0.1929 -0.1318
000030 40 30 34 32 e7 af e9 ac e2 b0 f9 84 33 af 69 80
       0.1328 0.1938 -0.1235 -0.0767 -0.1526 -7.59e-05 -0.1125 -6.26e-06
000040 dd b2 80 2f d5 2c 83 ac 7f 26 fa b0 a8 28 12 b1
       -0.2145 0.1172 0.0755 -0.0705 0.02538 -0.1555 0.03638 -0.1584
000050 ab 2d 41 ac 1d 31 4c a0 13 31 02 2e f3 b0 c3 af
       0.08856 -0.06647 0.1598 -0.00839 0.1586 0.0939 -0.1547 -0.1213
000060 c3 22 7d a5 0d a2 19 2f 27 aa f0 b0 99 30 4b 2a
       0.01321 -0.02144 -0.01182 0.1109 -0.04807 -0.1543 0.1437 0.04916
000070 82 28 06 31 7d 32 ed 26 15 23 0c ad 5a af 5f af
       0.03522 0.157 0.2028 0.02705 0.01383 -0.07886 -0.11487 -0.1152
000080 36 ae bc 2e 0e 31 bd 24 b3 2a 34 ab 75 2e 7e ad
       -0.09705 0.1052 0.158 0.01851 0.05234 -0.05627 0.1009 -0.0858
000090 63 a8 65 21 7c a7 b1 ac 02 b1 75 a9 23 ad 1c 2d
       -0.03427 0.01054 -0.02924 -0.0733 -0.1565 -0.04263 -0.08026 0.07983
0000a0 0f 2d fb 30 e8 2e 95 25 ff 2c de 29 0c ae 09 b1
       0.07904 0.1556 0.1079 0.0218 0.07806 0.04584 -0.0945 -0.1573
0000b0 8b 2d 00 ae 68 34 54 ac 4d 2a b8 a6 56 ae 47 2f
       0.0866 -0.09375 0.2754 -0.0676 0.04922 -0.02625 -0.099 0.1137
0000c0 74 b1 41 af ab a6 8a a5 7a 30 37 b1 88 b1 6e 2c
       -0.1704 -0.11334 -0.02605 -0.02164 0.1399 -0.163 -0.1729 0.0692
0000d0 08 b1 bb 28 81 2d 34 30 00 31 15 2a 5f 30 96 b0
       -0.1572 0.03696 0.086 0.1313 0.1562 0.04752 0.1366 -0.1433
0000e0 c5 26 31 b0 77 21 0a 2d ed a6 e6 af 2a b1 f1 aa
       0.02644 -0.131 0.01067 0.07874 -0.02705 -0.1234 -0.1614 -0.05423
0000f0 b9 ac 93 b0 c7 27 4e ab de b0 36 30 03 92 85 30
       -0.0738 -0.143 0.03038 -0.05707 -0.1521 0.1316 -0.000734 0.1412
000100 d0 b0 b7 a0 ec 99 7d 31 67 27 a0 31 65 31 07 b1
       -0.1504 -0.00921 -0.002892 0.1715 0.02892 0.1758 0.1686 -0.1571
000110 e1 2e f9 b0 f8 2e 31 30 eb b0 2f 2f 1a a8 a7 2e
       0.1075 -0.1554 0.1089 0.131 -0.1537 0.11224 -0.03204 0.10394
000120 e9 b0 37 31 31 2f b0 21 6c 30 dd af 12 a9 8f 94
       -0.1534 0.163 0.11237 0.01111 0.1382 -0.12286 -0.0396 -0.001113
000130 ea 19 62 ae 0c 9e 28 a9 c5 31 3f ae 19 30 3a af
       0.002888 -0.09973 -0.005905 -0.04028 0.1803 -0.0976 0.128 -0.1129
000140 68 b0 f4 31 47 aa 81 2f 9a b0 22 2e 33 2e 01 b0
       -0.1377 0.186 -0.04904 0.11725 -0.1438 0.0958 0.09686 -0.1251
000150 5e ad 83 30 cc 2e c4 2c 3b a6 bd 30 77 2d 33 31
       -0.08386 0.141 0.1062 0.07446 -0.02434 0.1481 0.0854 0.1625
000160 67 a4 9c 2a 95 31 2d 2d af b0 3b a1 63 b0 f7 a6
       -0.0172 0.05164 0.1744 0.0809 -0.1464 -0.010216 -0.1371 -0.0272
000170 52 30 c2 30 da 30 5c af c3 a8 11 31 18 b0 5e 31
       0.135 0.1487 0.1516 -0.115 -0.0372 0.1583 -0.1279 0.1677
000180 c1 29 0d 2e ec ac 46 b0 0d 2e cc 2b 8d ae e5 30
       0.04495 0.09454 -0.0769 -0.1335 0.09454 0.0609 -0.10236 0.153
000190 c1 27 d8 31 06 ad ca a9 2d b0 e8 a9 36 af ba a9
       0.03029 0.1826 -0.0785 -0.04523 -0.1305 -0.04614 -0.1127 -0.04474
0001a0 5d af 22 31 88 ac b3 2e f6 b0 6c 31 ca b0 d3 2e
       -0.11505 0.1604 -0.0708 0.1047 -0.155 0.1694 -0.1497 0.1066
0001b0 d3 9a fd 2c fb aa a2 b0 72 b1 89 2b ac ad d4 2f
       -0.003332 0.07794 -0.05453 -0.1448 -0.1702 0.05887 -0.0886 0.1223
0001c0 ba 2a 7e ae 84 30 8b ad cc ad 02 2c 35 26 4f 23
       0.05255 -0.10144 0.1411 -0.0866 -0.0906 0.0626 0.02425 0.014275
0001d0 92 2e e5 a8 16 2d a9 af 8d 2b 26 20 32 aa 8a ae
       0.10266 -0.03824 0.07947 -0.1197 0.059 0.0081 -0.0484 -0.1022
0001e0 8a 30 3b aa 7f 1b ce 2d 42 ad ef aa 50 af 34 2b
       0.1418 -0.04868 0.00366 0.0907 -0.08215 -0.05417 -0.11426 0.05627
0001f0 30 24 02 30 3c 2f 00 aa de 29 b7 31 4a 30 7e 31
       0.01636 0.1252 0.11304 -0.04688 0.04584 0.1786 0.134 0.1716

arith.constant95 f2 [128]
000000 7c 9e 9c 29 01 28 85 1d 9e 24 74 28 c2 20 ad 24
       -0.006332 0.04382 0.03128 0.00539 0.01804 0.0348 0.00929 0.01826
000010 c8 26 d9 26 a2 28 9c 28 1b 25 5d 9e 32 29 b7 2e
       0.02649 0.02675 0.0362 0.036 0.01994 -0.006214 0.0406 0.1049
000020 57 22 eb 24 58 81 00 29 32 30 ac 29 11 27 a4 9f
       0.01238 0.01921 -2.05e-05 0.03906 0.1311 0.0443 0.0276 -0.00746
000030 a0 24 41 21 18 a3 93 25 3f 99 98 29 86 2d 46 2c
       0.01807 0.01026 -0.013855 0.02177 -0.002562 0.0437 0.0863 0.0668
000040 f5 3b 22 3c 06 3c 05 3c 0a 3c 00 3c fa 3b 10 3c
       0.9946 1.033 1.006 1.005 1.01 1.0 0.997 1.016
000050 01 3c 13 3c 0e 3c 0b 3c 30 3c df 3b 0f 3c fc 3b
       1.001 1.019 1.014 1.011 1.047 0.984 1.015 0.998
000060 16 3c 0f 3c 00 3c 07 3c fd 3b 7e 3c 04 3c f2 3b
       1.021 1.015 1.0 1.007 0.9985 1.123 1.004 0.993
000070 0e 3c f4 3b ea 3b 10 3c 19 3c 07 3c 89 3b 0e 3c
       1.014 0.994 0.9893 1.016 1.024 1.007 0.942 1.014
000080 6b 9c 55 25 56 28 23 10 e0 24 66 26 b6 22 db 26
       -0.004314 0.02083 0.03387 0.000505 0.01904 0.025 0.01311 0.02678
000090 26 29 80 24 35 2a 6a 26 6d 24 49 a0 d0 29 b9 26
       0.04022 0.01758 0.0485 0.02505 0.01729 -0.00837 0.0454 0.02626
0000a0 02 23 31 28 b3 9d 35 24 32 2a 6d 2b 31 2a a1 a1
       0.01369 0.03275 -0.005566 0.01643 0.0484 0.058 0.04837 -0.010994
0000b0 6e 22 79 26 18 a0 fc 27 4f 1f 26 2a 63 1b 9f 29
       0.01256 0.02528 -0.007996 0.03119 0.007137 0.04803 0.003607 0.0439
0000c0 21 a3 35 29 1c 28 b1 1d 76 26 04 27 91 1e 31 14
       -0.01392 0.04068 0.0321 0.005558 0.02524 0.0274 0.006413 0.001023
0000d0 3b 26 11 27 b4 29 9d 25 d3 28 fe 9a 4f 29 ff 2c
       0.02434 0.0276 0.04456 0.02193 0.0377 -0.003414 0.04147 0.07806
0000e0 b5 25 4a 28 5c 81 b2 29 a4 2e 05 28 38 28 ae 9f
       0.0223 0.0335 -2.074e-05 0.0445 0.10376 0.0314 0.03296 -0.0075
0000f0 3a 1c e5 22 fe a2 03 26 17 1e 67 29 e3 2f 39 2c
       0.004128 0.013466 -0.01366 0.02348 0.005947 0.0422 0.1232 0.066

arith.constant96 f2 [128, 32]
000000 ef 2f 9f 2c 39 2f 0a 30 fd ab 5d 28 c0 ad 69 ad
       0.12396 0.0722 0.11285 0.1262 -0.0624 0.0341 -0.08984 -0.08453
000010 95 9d 47 ac f6 2d f8 b1 e4 a2 89 af 1a 22 66 2c
       -0.00545 -0.06683 0.09314 -0.1865 -0.01346 -0.11774 0.01192 0.0687
000020 8b 2f 30 b0 d9 2d 9f 2c 80 b0 f8 ab 3a 2a ab ae
       0.11786 -0.1309 0.0914 0.0722 -0.1406 -0.06226 0.04865 -0.1042
000030 dc aa 26 29 40 af d3 30 19 27 8d 2f 4e 25 e9 ad
       -0.0536 0.04022 -0.1133 0.1508 0.02773 0.118 0.02072 -0.09235
000040 0d 27 37 ab 73 27 64 b0 c9 26 c6 b2 6d 2a 72 2b
       0.02754 -0.05637 0.0291 -0.1372 0.0265 -0.2117 0.0502 0.05817
000050 e5 a2 66 ad 10 28 64 29 e7 a5 08 a3 42 2d 13 31
       -0.013466 -0.08435 0.03174 0.0421 -0.02306 -0.01373 0.08215 0.1586
000060 10 32 c4 ad 16 2f 1b a8 61 31 d8 34 2b ac 51 b0
       0.1895 -0.0901 0.1107 -0.03207 0.1681 0.3027 -0.0651 -0.1349
000070 24 2c 30 30 2d ac 3f aa 46 30 37 25 fa 22 ef ae
       0.0647 0.1309 -0.06525 -0.0488 0.1335 0.02037 0.013626 -0.10834
000080 4f 24 3a af 5d aa 31 a8 40 ab 22 aa 28 a9 ce 99
       0.01683 -0.1129 -0.0497 -0.03275 -0.05664 -0.0479 -0.04028 -0.002834
000090 47 ac d5 2f e4 26 d0 ac 2a a3 c7 a9 c8 ac 00 ae
       -0.06683 0.1224 0.02692 -0.0752 -0.01399 -0.04514 -0.0747 -0.09375
0000a0 54 31 11 a4 57 30 77 ae cc aa 88 ac db a8 ae 29
       0.1665 -0.01588 0.1356 -0.101 -0.0531 -0.0708 -0.03793 0.04437
0000b0 bc a4 e7 30 de 1f 98 ad a7 2c 33 ae 23 2a b0 b2
       -0.0185 0.1532 0.007683 -0.0874 0.0727 -0.09686 0.04794 -0.209
0000c0 89 a2 d3 ab 51 30 24 ae 75 b0 f7 a9 1d 26 1a ad
       -0.012764 -0.06113 0.1349 -0.09595 -0.1393 -0.0466 0.02388 -0.0797
0000d0 24 aa 57 2e 82 ae 6f 2c e3 2c 6c ae 1f a3 dc aa
       -0.04797 0.09906 -0.1017 0.0693 0.07635 -0.10034 -0.01391 -0.0536
0000e0 a5 a4 94 ae 8f a4 99 9d 73 2f eb b0 f9 a5 78 2a
       -0.01814 -0.1028 -0.0178 -0.005466 0.1164 -0.1537 -0.02333 0.05054
0000f0 d7 2e 4f 30 75 aa 7b 2c c9 a8 b8 af e3 ac 42 ac
       0.1069 0.1346 -0.05045 0.07 -0.03738 -0.1206 -0.07635 -0.0665
000100 01 ad b0 ab 72 a4 53 a8 96 2d 9b b3 71 28 a8 2e
       -0.0782 -0.06006 -0.01736 -0.03378 0.0873 -0.2377 0.0347 0.104
000110 51 aa 41 9d 14 18 b9 24 7d b0 fc 29 1e 97 86 b3
       -0.04935 -0.00513 0.001991 0.01845 -0.1403 0.04675 -0.001738 -0.2351
000120 87 2c 30 23 43 b0 d4 31 4c ac 1e 28 a8 b0 04 2a
       0.07074 0.01404 -0.1332 0.1821 -0.06714 0.03217 -0.1455 0.047
000130 4f 2a 96 a8 cb b0 5c 1d 29 a3 63 ad d2 b0 44 a3
       0.0493 -0.03583 -0.1498 0.005234 -0.013985 -0.08417 -0.1506 -0.01419
000140 66 2d 8b a8 70 ad 8f 2a 0e 2f 7b ab e7 aa ff 20
       0.08435 -0.0355 -0.08496 0.05124 0.1102 -0.05844 -0.05392 0.00976
000150 40 b2 cf 2a 99 ac 51 a5 30 29 56 ae 20 31 2e 23
       -0.1953 0.0532 -0.07184 -0.02077 0.04053 -0.099 0.1602 0.01402
000160 f9 2c 79 ac 6e 28 72 a8 bd aa 4c 28 03 0a 0f b4
       0.0777 -0.0699 0.0346 -0.03473 -0.05264 0.03357 0.0001835 -0.2537
000170 3f ab 91 ad 77 ac 4d 2c 20 a5 09 a1 50 a0 92 29
       -0.0566 -0.087 -0.06976 0.0672 -0.02002 -0.009834 -0.00842 0.04352
000180 41 a2 a5 a6 b6 a4 a7 16 65 2a 9f 2d 9e b1 c0 28
       -0.012215 -0.02596 -0.0184 0.001624 0.04996 0.0878 -0.1755 0.0371
000190 80 25 61 29 8e 2f cd 29 5f a0 09 2e 08 a5 5c 30
       0.02148 0.04202 0.11804 0.04532 -0.00854 0.0943 -0.01965 0.1362
0001a0 4c ad a2 30 32 ab 3e 2c 37 b1 56 33 74 9c ef a5
       -0.08276 0.1448 -0.0562 0.0663 -0.163 0.2292 -0.00435 -0.02318
0001b0 de 27 32 30 90 ac 04 ad 25 25 38 a8 43 b1 c1 30
       0.03073 0.1311 -0.0713 -0.07837 0.0201 -0.03296 -0.1644 0.1486
0001c0 f9 b0 c6 2c 8d 23 6b 27 50 2d cd a1 3c 1d a2 ac
       -0.1554 0.0746 0.01475 0.02898 0.083 -0.01133 0.00511 -0.0724
0001d0 85 30 ba ab 7d 2f 12 ac 6e b1 6e ae 1a 2e 99 a2
       0.1412 -0.06036 0.117 -0.0636 -0.1697 -0.10046 0.09534 -0.012886
0001e0 ad b0 4f b0 01 2d ea ad 7d 30 e4 2e d9 24 4b ae
       -0.1461 -0.1346 0.0782 -0.0924 0.1403 0.10767 0.01894 -0.0983
0001f0 09 2c a0 2b 62 a1 91 2d 0c ab 69 25 d2 aa f4 1c
       0.06305 0.05957 -0.01051 0.087 -0.05505 0.02113 -0.05328 0.004837

arith.constant97 f2 [128, 32]
000000 e3 ac 82 22 88 2c 91 25 e2 30 49 34 4d a2 59 b0
       -0.07635 0.01271 0.0708 0.02174 0.1526 0.2678 -0.01231 -0.1359
000010 a5 ac cd 2d 63 29 2e b0 e1 b1 79 30 fd ae 22 a9
       -0.0726 0.09064 0.04208 -0.1306 -0.1837 0.1398 -0.1092 -0.0401
000020 2b b1 6f ae 69 b1 b1 b0 df 2b ae 30 91 2c c8 30
       -0.1615 -0.1005 -0.1691 -0.1466 0.0615 0.1462 0.07135 0.1494
000030 cf b1 87 ac c7 2a 42 2f 8f 2e 81 2d ef a9 4e b1
       -0.1815 -0.07074 0.05295 0.1134 0.1025 0.086 -0.04636 -0.1658
000040 23 29 68 2b db 2c f4 2d 6d 29 aa ae 73 31 9c 2e
       0.04013 0.05786 0.07587 0.093 0.0424 -0.1041 0.1703 0.1033
000050 f8 b0 03 ad dd 2f ba a9 e7 31 18 af e2 2c 47 9e
       -0.1553 -0.0783 0.12286 -0.04474 0.1844 -0.11084 0.0763 -0.00613
000060 b2 b0 84 ae 18 b0 b6 a7 fa 25 11 b0 a1 ad 4b 26
       -0.1467 -0.1018 -0.1279 -0.03012 0.02335 -0.1271 -0.08795 0.02458
000070 23 a1 e8 2f 94 29 28 28 23 aa 38 30 ab a0 b3 ac
       -0.01003 0.12354 0.04358 0.03247 -0.04794 0.1318 -0.00912 -0.0734
000080 2a 2c ef 31 5d b1 48 ad 12 1c 1f b1 30 2e 42 b0
       0.06506 0.1854 -0.1676 -0.0825 0.003975 -0.16 0.0967 -0.133
000090 db aa 03 a1 a5 2a 52 2e 3f 2c 46 2f 83 2c 18 2d
       -0.05356 -0.00979 0.0519 0.09875 0.06635 0.11365 0.0705 0.0796
0000a0 e9 31 0d 32 a7 ac 50 30 26 af da b0 47 af f6 30
       0.1847 0.1891 -0.0727 0.1348 -0.1117 -0.1516 -0.1137 0.155
0000b0 77 af bf ab 9d ab 85 30 c5 ac 37 28 65 b1 b1 29
       -0.11664 -0.06052 -0.05948 0.1412 -0.0745 0.03293 -0.1686 0.04446
0000c0 5b b1 2c 2c d7 2e 1e 25 04 ae ff a7 33 32 1d b1
       -0.1674 0.0652 0.1069 0.01999 -0.094 -0.03123 0.1937 -0.1598
0000d0 22 24 41 ae d6 ab 2c a7 dd a9 37 31 94 2e f2 ac
       0.01614 -0.0977 -0.06122 -0.02802 -0.0458 0.163 0.1028 -0.0773
0000e0 59 a1 21 32 24 b1 02 b0 2b 32 89 25 6a a5 ba b1
       -0.010445 0.1915 -0.1606 -0.1252 0.1927 0.02162 -0.02115 -0.179
0000f0 a0 2d 15 aa 3b 2e da 24 15 2e ab 30 83 ad 94 30
       0.0879 -0.04752 0.09735 0.01895 0.09503 0.1459 -0.0861 0.1431
000100 a4 26 e0 a4 d8 2d e2 af eb 32 21 21 c7 a0 11 24
       0.02594 -0.01904 0.0913 -0.12317 0.2162 0.01002 -0.00933 0.01588
000110 f0 ab 11 b1 b7 31 73 ae 12 33 e9 ab 4b 23 8f 2d
       -0.062 -0.1583 0.1786 -0.10077 0.221 -0.0618 0.014244 0.08685
000120 19 32 10 b2 65 30 33 ac b0 b0 53 24 c7 b0 61 b0
       0.1906 -0.1895 0.1373 -0.0656 -0.1465 0.01689 -0.1493 -0.1368
000130 b4 a9 7b a7 61 31 98 a5 19 ac f4 31 f7 2e 8d 2d
       -0.04456 -0.02922 0.1681 -0.02185 -0.064 0.186 0.1088 0.08673
000140 bd b0 39 24 e9 9f e4 ae 6f ae 41 1e 53 30 67 33
       -0.1481 0.0165 -0.007725 -0.10767 -0.1005 0.006107 0.1351 0.2313
000150 54 b0 f6 2f 3a 28 ff b1 86 25 fa 2e 27 aa 32 32
       -0.1353 0.1244 0.03302 -0.1874 0.02158 0.109 -0.04807 0.1936
000160 7c a7 22 b1 55 30 95 31 59 31 dd ac d1 a4 f4 2b
       -0.02924 -0.1604 0.1354 0.1744 0.1671 -0.076 -0.01881 0.06213
000170 3e 27 7d a8 0e 30 65 a3 da 2c 0f b0 6a 24 de a5
       0.02829 -0.03506 0.1267 -0.01444 0.0758 -0.1268 0.01724 -0.02292
000180 c1 b1 ed 23 26 ae 01 a9 43 31 26 30 e2 30 6e 30
       -0.1798 0.01548 -0.09607 -0.0391 0.1644 0.1296 0.1526 0.1384
000190 0e 32 a3 31 26 31 3f 30 f1 2b 1f 2f b1 a8 ec ad
       0.1892 0.1761 0.1609 0.1327 0.06204 0.11127 -0.03665 -0.0925
0001a0 4d ac dc b1 9f b0 a9 b1 7f 9c af b1 09 b1 73 b0
       -0.0672 -0.1831 -0.1444 -0.1769 -0.00439 -0.1776 -0.1573 -0.139
0001b0 4f ae 5f 32 0d af 45 30 99 ad 05 af 1c a8 4a ae
       -0.0986 0.1991 -0.11017 0.1334 -0.08746 -0.1097 -0.0321 -0.09827
0001c0 c8 2f bf ad 05 a7 7b 30 65 a9 7e b1 43 31 a1 31
       0.1216 -0.0898 -0.02742 0.14 -0.04214 -0.1716 0.1644 0.1759
0001d0 75 30 d9 b0 3f 2c 45 30 81 b1 89 aa 50 b0 6f 30
       0.1393 -0.1515 0.06635 0.1334 -0.172 -0.05106 -0.1348 0.1385
0001e0 44 a0 b7 af c9 ad 29 31 c0 a8 9c b2 10 30 ef ad
       -0.00833 -0.12054 -0.0904 0.1613 -0.0371 -0.2065 0.127 -0.0927
0001f0 f3 b1 25 24 a5 30 05 2a c0 aa 4f b0 29 2c 3f 17
       -0.1859 0.01619 0.1451 0.04703 -0.05273 -0.1346 0.065 0.001769

arith.constant100 f2 [256]
000000 e7 26 91 28 f1 33 fb 2a 78 30 8b 2a 16 23 44 9f
       0.02696 0.03568 0.2482 0.05453 0.1396 0.05112 0.01384 -0.007095
000010 48 83 36 27 96 29 69 26 51 24 84 2b a0 25 1a 25
       -5.007e-05 0.02817 0.04364 0.02504 0.01686 0.05872 0.02197 0.01993
000020 5c 27 c4 27 69 23 1c 2a 98 21 96 26 d1 21 f4 27
       0.02875 0.03033 0.01447 0.04773 0.010925 0.02573 0.01136 0.03107
000030 9f 2b f2 25 e2 20 7f 96 7d 1c 18 2a 4b 2a 8d 9d
       0.05954 0.02322 0.00954 -0.001586 0.004383 0.0476 0.04916 -0.00542
000040 50 a1 0d 28 70 24 1a a4 31 2c 4a 24 99 a1 ca 26
       -0.010376 0.03165 0.01733 -0.01602 0.0655 0.01675 -0.01093 0.02652
000050 d5 2f e3 a3 73 2c a7 25 4b 24 7d 28 3b a8 4c 28
       0.1224 -0.0154 0.0695 0.02208 0.01677 0.03506 -0.03305 0.03357
000060 f7 33 32 24 c1 2d 2b 27 86 2e e7 a1 bf 28 b1 23
       0.2489 0.01639 0.0899 0.028 0.1019 -0.01153 0.03708 0.01502
000070 fa 1e e3 29 7c a7 61 25 f2 26 69 28 7e 29 0d 2b
       0.006813 0.046 -0.02924 0.02101 0.02713 0.03445 0.0429 0.05508
000080 f4 3b 0f 3c e5 3b 12 3c 03 3c 12 3c da 3b d7 3b
       0.994 1.015 0.987 1.018 1.003 1.018 0.9814 0.98
000090 00 3c fc 3b 06 3c e1 3b ff 3b 1f 3c 16 3c 09 3c
       1.0 0.998 1.006 0.985 0.9995 1.03 1.021 1.009
0000a0 ef 3b 1b 3c 8a 3b 14 3c fb 3b ef 3b 06 3c 0a 3c
       0.9917 1.026 0.9424 1.02 0.9976 0.9917 1.006 1.01
0000b0 0b 3c ed 3b e4 3b b6 3b 08 3c ec 3b 1b 3c fb 3b
       1.011 0.9907 0.9863 0.964 1.008 0.99 1.026 0.9976
0000c0 e7 3b 00 3c f0 3b de 3b 0d 3c f3 3b e6 3b de 3b
       0.988 1.0 0.992 0.9834 1.013 0.9937 0.9873 0.9834
0000d0 e6 3b e0 3b 10 3c 09 3c 14 3c 05 3c b7 3b 14 3c
       0.9873 0.9844 1.016 1.009 1.02 1.005 0.9644 1.02
0000e0 fb 3b ef 3b 13 3c 39 3c 00 3c c5 3b ff 3b de 3b
       0.9976 0.9917 1.019 1.056 1.0 0.971 0.9995 0.9834
0000f0 1c 3c 05 3c bb 3b ed 3b 1b 3c f5 3b fe 3b 4b 3c
       1.027 1.005 0.9663 0.9907 1.026 0.9946 0.999 1.073
000100 fe 22 42 26 7d 2d 7e 1b e6 13 a7 29 33 1e 78 a0
       0.01366 0.02444 0.08575 0.003658 0.000964 0.04416 0.006054 -0.00873
000110 bb a3 86 29 fb 25 33 27 59 27 b8 26 2d 26 5f 29
       -0.0151 0.04315 0.02336 0.02812 0.0287 0.02625 0.02412 0.04196
000120 c2 1b 23 a1 f5 a3 d8 28 4b 28 63 a7 83 9c 99 28
       0.003788 -0.01003 -0.01554 0.03784 0.03354 -0.02885 -0.004406 0.03592
000130 32 24 ed 26 ad a0 71 a4 97 a5 1b 29 f2 2c 9e a0
       0.01639 0.02705 -0.00913 -0.01735 -0.02184 0.0399 0.0773 -0.00902
000140 dd 9b 7e 27 5d 0f 36 a5 17 2b 1e 29 a6 a4 ff 28
       -0.00384 0.02927 0.0004494 -0.02036 0.0554 0.03998 -0.01816 0.03903
000150 86 28 5b a4 0f 2c 4a 27 14 29 27 23 58 a2 c9 29
       0.03534 -0.01701 0.0634 0.02847 0.03967 0.01397 -0.01239 0.0452
000160 87 2d 5e 2a ad 2c 6b 29 e1 25 48 19 91 29 b2 25
       0.08636 0.04974 0.07306 0.04233 0.02296 0.002579 0.0435 0.02225
000170 0a 25 df 29 68 a4 25 27 35 21 04 2c 5b 2b ab 1f
       0.01968 0.04587 -0.01721 0.02791 0.01017 0.06274 0.05746 0.00749
000180 80 1a 23 29 91 32 fd 2b 89 2e 50 29 a6 a0 85 a4
       0.003174 0.04013 0.2052 0.0624 0.1021 0.0415 -0.00908 -0.01765
000190 26 83 3a 25 15 26 19 28 9a 23 77 2d 86 26 f0 23
       -4.804e-05 0.02042 0.02376 0.032 0.01485 0.0854 0.02548 0.0155
0001a0 13 27 2c 27 d1 1b 43 2a 6d 1d c3 25 69 20 13 24
       0.02763 0.02802 0.003817 0.04892 0.0053 0.0225 0.00861 0.01591
0001b0 0f 29 f1 26 4e 26 ca 99 d4 1f 23 29 c6 2a 16 9e
       0.03952 0.02711 0.02463 -0.002827 0.007645 0.04013 0.05292 -0.005943
0001c0 f5 a1 55 28 0c 20 11 a4 92 29 c4 24 c4 9f c1 24
       -0.011635 0.03384 0.007904 -0.01588 0.04352 0.01862 -0.007584 0.01857
0001d0 61 2d e0 a3 58 2c 19 15 bb 24 36 28 df a8 6d 2b
       0.08405 -0.01538 0.0679 0.001245 0.01848 0.0329 -0.03806 0.058
0001e0 0c 32 c2 26 da 2f 06 27 45 2e df a4 91 28 10 26
       0.189 0.0264 0.1227 0.02744 0.09796 -0.01903 0.03568 0.02368
0001f0 76 23 59 25 7d a6 41 22 58 26 59 26 74 28 52 2a
       0.01457 0.02089 -0.02534 0.012215 0.02478 0.0248 0.0348 0.04938

arith.constant101 f2 [256, 64]
000000 e0 a2 d2 29 f0 2a 03 2a a6 b1 79 a8 3a 2c 1e 27
       -0.01343 0.04547 0.0542 0.04697 -0.1765 -0.03494 0.06604 0.0278
000010 ed 14 bc a9 69 2d 5c ac 0e 24 5b ae 1c 27 ec 2c
       0.001203 -0.0448 0.08453 -0.0681 0.01584 -0.0993 0.02777 0.0769
000020 01 23 9e 2d 2e 2b e6 2d 03 a1 32 a5 10 30 10 ad
       0.01368 0.08777 0.0561 0.09216 -0.00979 -0.0203 0.127 -0.0791
000030 d2 b1 49 ac d2 2b 41 b0 24 ac e7 ad dc a0 3b 28
       -0.1819 -0.06696 0.0611 -0.1329 -0.0647 -0.0922 -0.00949 0.03305
000040 1c a8 df 27 2b 29 d2 30 65 a8 d0 1e 30 a1 61 28
       -0.0321 0.03075 0.04037 0.1506 -0.03433 0.006653 -0.01013 0.0342
000050 e8 ab 3f 29 b9 aa c9 24 17 26 bf 2a 80 ab 48 2c
       -0.06177 0.041 -0.05252 0.01869 0.02379 0.0527 -0.0586 0.0669
000060 8d 2a db 2d e3 28 9f 20 5c 25 08 ab 9d 27 2f 2c
       0.05118 0.0915 0.03818 0.009026 0.02094 -0.05493 0.02974 0.06537
000070 f3 1c ca 26 10 a7 90 29 da a5 71 2f d8 af 84 28
       0.004833 0.02652 -0.02759 0.04346 -0.02286 0.1163 -0.12256 0.03528
000080 9d a4 6a a7 1c 26 5d 2d f0 18 45 2e 78 19 3d ab
       -0.01802 -0.02896 0.02386 0.0838 0.00241 0.09796 0.00267 -0.05655
000090 5a a7 f5 a1 1c 25 af 1c a8 26 84 2f 44 a2 29 1e
       -0.02872 -0.011635 0.01996 0.004574 0.026 0.11743 -0.01224 0.006016
0000a0 f9 a1 be a9 23 ac 08 a8 cd 9e e8 2c 3e a1 7f a9
       -0.011665 -0.04486 -0.06464 -0.0315 -0.00664 0.07666 -0.01024 -0.04294
0000b0 f4 a9 40 15 5a ad e1 30 cc ac 38 99 df 25 a7 2d
       -0.0465 0.001282 -0.0836 0.1525 -0.07495 -0.002548 0.02293 0.0883
0000c0 ac b0 14 ad 45 ae 80 ac c1 2f a7 22 cf af 2d b3
       -0.146 -0.07935 -0.09796 -0.0703 0.12115 0.01299 -0.122 -0.2242
0000d0 c9 a3 a7 a4 fa 2c 59 a5 94 af fb 2b e8 8f 9e b4
       -0.015205 -0.01817 0.07776 -0.02089 -0.1184 0.06235 -0.0004826 -0.2886
0000e0 ec b0 4a 1b 50 24 b7 a8 db 1c 2b a8 0d 31 8d ac
       -0.1538 0.00356 0.01685 -0.03683 0.00474 -0.03256 0.1578 -0.0711
0000f0 a4 a2 13 1d 53 af 02 24 b4 2b 2e ad 33 ae 79 ac
       -0.01297 0.004955 -0.11444 0.01566 0.06018 -0.08093 -0.09686 -0.0699
000100 27 ac 9c ac 6b ac 0f b0 32 b0 27 97 86 a7 83 a1
       -0.0649 -0.072 -0.06903 -0.1268 -0.1311 -0.001746 -0.02939 -0.010765
000110 0c ab d1 b0 66 1d 79 27 7c b1 cd b0 f9 ae b8 ac
       -0.05505 -0.1505 0.005272 0.02919 -0.1714 -0.15 -0.10895 -0.0737
000120 e4 a4 47 ad 17 af 4e ad 2f af a6 a8 d8 22 ea af
       -0.0191 -0.08246 -0.1108 -0.0829 -0.11224 -0.03632 0.01337 -0.12366
000130 ca b3 ac b0 2a a4 db 28 42 ad b5 a6 dc a6 34 a7
       -0.2434 -0.146 -0.01627 0.03793 -0.08215 -0.0262 -0.0268 -0.02814
000140 2a ab f8 2a 0b ad 0e 1e 63 88 dc 2a f4 23 3e 23
       -0.05597 0.05444 -0.0788 0.005913 -0.0001339 0.0536 0.01553 0.014145
000150 04 2f 2a ad c4 a5 13 ab 4e 99 fc a4 e6 28 c4 a6
       0.1096 -0.0807 -0.02252 -0.05527 -0.00259 -0.01947 0.03827 -0.02643
000160 c4 25 5b ae 65 ae a2 ac 28 a3 f7 ae 5b aa 21 25
       0.02252 -0.0993 -0.0999 -0.0724 -0.01398 -0.1088 -0.04965 0.02003
000170 7b ad 25 ad e8 2c 03 b0 a1 28 4b ab f7 af 65 a9
       -0.08563 -0.0804 0.07666 -0.1254 0.03616 -0.05698 -0.12445 -0.04214
000180 e5 aa 1f a0 5c a9 02 a5 a8 2a 60 aa fb ae 09 29
       -0.05386 -0.00805 -0.04187 -0.01956 0.052 -0.0498 -0.1091 0.03934
000190 e9 26 8d b0 30 a3 ea ad 7e ad 99 a8 96 a8 ff ab
       0.027 -0.1422 -0.01404 -0.0924 -0.0858 -0.03592 -0.03583 -0.06247
0001a0 9b ac d8 b2 02 2e f3 a9 c0 ad 34 2e 27 94 ac a7
       -0.07196 -0.2139 0.0939 -0.04648 -0.08984 0.0969 -0.001014 -0.02997
0001b0 d4 ab 2f 2c dc 2c 4e a7 4b ac 1d 25 b0 af e4 a2
       -0.06116 0.06537 0.0759 -0.02853 -0.0671 0.01997 -0.1201 -0.01346
0001c0 a0 2f b7 24 93 b1 76 2c a2 98 d7 9b a5 ac 73 1d
       0.11914 0.01842 -0.1742 0.0697 -0.002262 -0.003828 -0.0726 0.00532
0001d0 07 af fe a6 61 a0 fe 2d b2 a9 d2 25 5f ae 3a af
       -0.1098 -0.02731 -0.00855 0.0936 -0.0445 0.02274 -0.09955 -0.1129
0001e0 25 a8 f5 a1 03 a8 d3 a9 1d ae 71 2a 28 2e 4c 26
       -0.03238 -0.011635 -0.03134 -0.0455 -0.0955 0.05032 0.0962 0.0246
0001f0 71 a6 2f b0 4d 2c 7d 2d 69 a8 e0 a7 e9 2b 19 24
       -0.02516 -0.1307 0.0672 0.08575 -0.03445 -0.03076 0.0618 0.016
